ckpt/student_wo_KD_best.pth (torch, 233650 bytes, 29 tensors)

encoder_x1.weight f4 [30, 128]
00000000: c064 973f 6d51 b73e b5e3 b3be b2d2 32c0
00000010: f1a6 6740 0f73 27be 13b1 283e 767e 4bbf
00000020: d9d3 8ebf c0cb 8a3f 939e 44bf 5a06 74bf
00000030: 9e15 8140 8b10 cd3f cbd3 69bf 01a4 2140
00000040: 8ff1 0b3f 14eb 6cbf c26c 83be cac0 7abf
00000050: 34cd 6540 ec5c 38bf ca2e 4cbe fecc 9e3f
00000060: 94b6 10bf 3b1f 2ebe 2b06 3bbf ed44 0840
00000070: 080c f03f 8091 4f3d 23f0 a33e 76a2 a2be
00000080: 40bb 2ebf b5ec 933f dd61 2bbd 24b9 63bf
00000090: a750 653f 6b23 88bf 2f25 3240 c2c7 8fbf
000000a0: f51a dabf e162 97bf 0a6c 47bf 62d8 183f
000000b0: 5da3 93be f57c 8a40 2c53 033f 3d41 71bf
000000c0: c476 9abf 13dc f43e 5f61 17bf c640 423f
000000d0: 0eab 5abf b70e 8cbf c16c e03e 1666 99bf
000000e0: 13b7 583d 06dd c9be e55e 073f 1c81 6abf
000000f0: 7232 aa3e 14de 23bf 8328 1d40 8eb7 cc3f
00000100: b01c 48be db5e 5a3e 9d19 18bd 6c7e fdbe
00000110: 4ce8 cdbf 90a4 0340 3031 05bf 5e68 10bf
00000120: 669c 473d ff57 673c 10b5 6fbd 3e01 5bbf
00000130: 71da 323f 42e5 f5be c012 0440 eca0 46bf
00000140: 80a3 873e 2c3d c2be ef2d dbbe 984c 513f
00000150: c821 093f 7ce2 afbe c159 35bf be80 873f
00000160: 9b80 2fbf 997a d5be 881d a6bf 9be8 f43f
00000170: 9b4e c63d f6cd 843f 6f88 a53f a7a8 233e
00000180: c695 20bf fd1e 0bbf 92fe abbf 6275 a73f
00000190: b738 ef3f 46da 78bf 09ff c7be 68e9 0a40
000001a0: 12f3 94bd e37c 83bf 71b2 e63e 3b7e 2a3e
000001b0: a366 76bf 0e3d 823f e425 a5bf 2771 803f
000001c0: f8a3 fcbe 92ee 4d3d 9469 56bf 2599 abbe
000001d0: 943b 8cbf ee02 c93e 6949 0dc0 b70e 343f
000001e0: 3078 80bf 7691 7d3f c9b1 9dbf c121 ebbe
000001f0: 2a7e 86bf d611 78bf 5633 4240 97a0 9640
00000200: b0a6 5a3f c751 c0be 4c0e 8cbf 664b e7bf
00000210: eb90 fe3f 928c 5e40 b044 83be 7574 863f
00000220: d501 02bf 45c6 b73f e61b 81bd be95 153e
00000230: dd7d 1c40 b58a ad3f c2e8 29bf 0da0 393f
00000240: f7f1 1f3f 0d49 3abf 224c 9bbe 01a4 4cbf
00000250: 95da 013f 1656 50bf 8be0 12bf fa34 5c3f
00000260: 4301 80be a42b f33e a866 5bbf 6540 7d3f
00000270: 1140 40be 6922 103f 2f55 42be 6ee8 3ebf
00000280: b9a9 dfbe e143 843f 1279 87bf e7f3 613e
00000290: 235b 583f b617 54bf a7d0 c83f d52b 34bf
000002a0: 0ade 58bf dc73 16bf 0bb2 19bf 6dd5 a53d
000002b0: f3a4 1540 0072 6940 56b8 fc3f 4463 a33e
000002c0: cec7 0cbf d199 093f 4396 39bd b5b0 2a3f
000002d0: 0543 efbe 8974 5abf d7b2 9a3e a025 c7be
000002e0: b738 0c40 81de 71bf acb0 b83e 7ed9 29bf
000002f0: 59d1 d73d 47a0 f93e 1352 8f3f 3c38 753f
00000300: 7c27 c8be 67c2 24be 1e53 2ebf 65dc a7bf
00000310: 496b c3be 51a7 a43f f941 43bf 41ac 50bf
00000320: 5009 863e 73ed 41bf 82c7 4abf 60af bdbe
00000330: 7807 3fbf 72a9 2c3d 1421 af3f 984f 883f
00000340: a561 0cbd 4a8c e5bd 06fe 2bbf 2ddc f23e
00000350: a5db a73e 8a34 823f dc05 cf3d 34e0 383f
00000360: 65e5 a9be 3141 6ebe db71 8abf 7456 113f
00000370: 793b 503c f485 9d3e cbf2 8b3f 5987 0040
00000380: 2cce d8be cfa0 1bbf 4afb 3dbf bb14 35bf
00000390: 8769 b03f 3602 19bf d9bf d7bc f132 843f
000003a0: 2675 abbf f779 12be 10e7 3d3f 5a3d 8e3e
000003b0: dedf 453e f04f ce3e f84e 1cbf 31d0 733f
000003c0: fff7 003e 2c6e 603e b60c 25bf 5a12 f33d
000003d0: 7b73 05bf cc40 5f3f aa0e 32bf a2f6 373f
000003e0: 4ece d1bf cc02 6c3f 0b24 49bf e8a3 b73e
000003f0: 068d 64bf 11c2 87be d3c7 0b40 4d20 de3f
1.1827621 0.3580431 -0.35134664 -2.7941098 3.6195643 -0.16352485 0.16473798 -0.7948984
-1.1158401 1.084343 -0.76804465 -0.9532219 4.033889 1.6020674 -0.91338795 2.525635
0.54665464 -0.925462 -0.25668913 -0.9795042 3.5906496 -0.7201679 -0.19939724 1.2406309
-0.5652859 -0.17004101 -0.73056287 2.129207 1.8753672 0.05067587 0.32019147 -0.31764573
-0.6825447 1.1556612 -0.041841377 -0.8895438 0.8957619 -1.0635809 2.7835195 -1.1232836
-1.7039477 -1.182705 -0.7789923 0.59705174 -0.28835574 4.3277535 0.51298785 -0.9424017
-1.2067494 0.47824153 -0.5913295 0.75880086 -0.8541726 -1.0941991 0.43832973 -1.1984279
0.05290897 -0.3942644 0.5287917 -0.91603255 0.33241612 -0.6401074 2.4555976 1.5993516
-0.19542193 0.21325247 -0.0371338 -0.49510515 -1.6086516 2.056919 -0.5202818 -0.5640925
0.048733138 0.014120101 -0.058522284 -0.8554877 0.69864565 -0.48026472 2.0636444 -0.775893
0.26491928 -0.37937295 -0.42808482 0.817575 0.5356717 -0.3435248 -0.7084008 1.0586164
-0.6855561 -0.41695097 -1.2977762 1.9133486 0.096829616 1.0375354 1.2932261 0.15982305
-0.62728536 -0.5434416 -1.3437064 1.3082697 1.8689183 -0.9720806 -0.39061764 2.170496
-0.072729245 -1.0272487 0.45058015 0.16649716 -0.9625036 1.0174882 -1.2902188 1.0034531
-0.49343848 0.050276347 -0.8375485 -0.33515278 -1.0955682 0.39260048 -2.2076056 0.70334953
-1.0036678 0.9905008 -1.2319881 -0.4592419 -1.0507252 -0.96902215 3.0343833 4.7071033
0.85410595 -0.3756239 -1.0941863 -1.8069885 1.9887975 3.4773297 -0.25638342 1.050429
-0.50784045 1.4357382 -0.06304149 0.14607903 2.445182 1.3557955 -0.66370785 0.72509843
0.62478584 -0.72767717 -0.30331522 -0.7993775 0.50724155 -0.81381357 -0.57373875 0.86018336
-0.25000963 0.47494233 -0.85703516 0.98926383 -0.1877444 0.56302506 -0.18977807 -0.7457341
-0.43684176 1.0333215 -1.0583823 0.22065698 0.84514064 -0.8284868 1.5688676 -0.7037938
-0.84713805 -0.5877054 -0.60037297 0.08097348 2.3381927 3.647583 1.9743755 0.3191167
-0.5499238 0.5375033 -0.045309316 0.66675884 -0.4673082 -0.8533407 0.3021457 -0.38895893
2.1909616 -0.9448014 0.3607229 -0.6634749 0.10537977 0.48755094 1.1196922 0.9578893
-0.39092624 -0.16089784 -0.68095577 -1.3114134 -0.3816779 1.2863561 -0.7627254 -0.8151284
0.2617898 -0.75752944 -0.79210675 -0.37047863 -0.7462077 0.042153783 1.368197 1.064929
-0.03427281 -0.11208399 -0.67184484 0.47433606 0.32784763 1.0172284 0.101085395 0.72217107
-0.33182827 -0.23267056 -1.0815996 0.5677254 0.012709492 0.3076626 1.093347 2.008261
-0.42344797 -0.6079225 -0.7421156 -0.7073476 1.3782204 -0.59769 -0.026336597 1.0328046
-1.3395126 -0.14304338 0.741807 0.27781183 0.1932368 0.40295362 -0.61057997 0.9523955
0.12594603 0.21917027 -0.6447252 0.11868735 -0.52129334 0.8720825 -0.69553626 0.71860707
-1.6391084 0.9219177 -0.7857062 0.35867238 -0.89277685 -0.26515248 2.1840713 1.7353607

encoder_x2.weight f4 [20, 128]
00000000: ef88 27be 419d 1ebf 6e51 923e ab2d 573f
00000010: 2f5b e83e 79e7 373f d933 91bc a376 59bd
00000020: 0409 b0bd 05f9 14be 685f e6be e06c f53e
00000030: 5fb6 21be 9572 f2be fd10 50be a8d4 2dbf
00000040: dc09 ecbe 4abc 623f 75c4 253f 0afe 9f3e
00000050: 3bb8 903e edc8 843e f3fe 813e 5ddc d13e
00000060: ebcb 86be 3a8f 34be be9c e63c 6b9f d5be
00000070: 5eee d3be bf3c 9f3d b077 0b3f 12a6 b03e
00000080: bb08 523e cad2 2abe 00ae 66bf 8cd7 8cbe
00000090: bd8d 243e 490f 293e 5612 4cbd 577e aa3e
000000a0: 0651 0c3f b70b 0d3d b36f e83e e5ec f33e
000000b0: 5686 b4be b969 953e 1c50 9ebe e6cf 9f3e
000000c0: 8070 ecbe c77f 37be c91c a13d b0fe fcbe
000000d0: d577 ddbd 583f 043f a1d3 8f3e cc56 bf3e
000000e0: 4ff1 07bf ea08 193d c277 d6be fd02 82bd
000000f0: ec91 b63e 816d 843e c3b9 873d 780c b2be
00000100: fa91 b83d d81a f0bd cbce c0bc 8c55 4ebd
00000110: 01d7 ee3e c7f0 71bf e260 93be 0b88 023f
00000120: 0512 bbbe 5200 a53e 3f9d 07bf 951b 9abd
00000130: 1fc4 fabe 56d5 08be e4e1 5bbe 71d0 023f
00000140: ebd9 acbe 66c0 44bf 091b 4b3f 0f56 b13e
00000150: 0a00 dcbe 5cbb 803c eefc 003f 9dd2 aa3e
00000160: 85a3 823e ea25 843e cc34 7539 b464 25bf
00000170: 59c9 35bf af28 103e a72e 25be ea40 4fbe
00000180: e35b a93e b814 a43e c4fa 353f 0ed9 1dbf
00000190: 7fd6 083e 15d5 26be 2bbf ef3d c6a7 0fbf
000001a0: 2de5 acbe fa22 4b3e 506d c63e cda8 2b3e
000001b0: d399 8dbe 151b a0be 733b ee3e e7c8 b7be
000001c0: dce0 66be c649 ce3e d480 033f b0db 8abe
000001d0: 27c6 e43e 77f1 593e b616 5a3d 7aa1 0c3f
000001e0: bf7b 3f3f 26c1 9a3d 6207 723f 2fc7 0c3d
000001f0: ade2 023f 9940 003e cc8d 1fbf 4de5 17be
00000200: 7cf6 11bf 0f7e 44be a457 d13d 0baa 443e
00000210: 1832 02bf 8ebd 6bbe 5d31 1b3f 479a cbbe
00000220: e7af 7abe dd17 83be 42e9 013f d4e7 623e
00000230: 60d6 b83d 09b5 d3bc 7efa 383f b81a 913b
00000240: 009c a3be 9090 3b3e 413a 933d d5f3 873e
00000250: 480b 943e 41bc a6be 0cd0 23bf e025 40bf
00000260: 3ff8 b2be 5fbe 5cbf c285 943e 343c b23d
00000270: 11ea 84be 4dd0 2abe c88d 2d3e e45e 073f
00000280: f404 893e 445e 57be 61a2 c3bd 3b0e 053f
00000290: a717 c3be 45ee d63c b212 b4be 728e e8be
000002a0: 0f39 9a3e 81ff 0b3f b697 d63e e5ae b13d
000002b0: 5e22 c83d 885f 7ebd 1e85 003f 68d5 96bd
000002c0: abf2 d63e f6bf 2d3c 234e 5ebe 2ce4 a9bc
000002d0: a34c 393f b6b0 113e b3f6 56bf bb22 2ebf
000002e0: 1482 4fbe f1de b8bd 547c ebbc f7ac 033f
000002f0: 66b7 2bbf 1f40 4ebd 155a e2bd c6e4 013e
00000300: b17a 4cbe 16ce 18bf f07c 51bf 2d6c a2bd
00000310: 399d 143e 7206 eebd 6e3f 9a3e 8761 ed3c
00000320: d8f9 e9bd acbe 3c3f 68e6 a7be c050 a8bd
00000330: 9ead f33e 9847 e13d 28a4 febe 2975 71be
00000340: 4175 72bd 1dc2 583f 2711 e53e a1a1 583d
00000350: 92dc fabe 198b 7cbd b450 54be c640 56be
00000360: bb3c 2ebf 098f 33be f00b 0dbe 366b 39bd
00000370: 4b39 ccbe 8b33 c63e 9216 20bf 38df dabe
00000380: db34 b73e 3d8c 423f b69e 82be 9528 0bbe
00000390: f25a 89bd a475 5d3e 5469 ed3e b4f5 1f3e
000003a0: 5cf2 363e 77f0 34bf 57b7 01bd 7de9 92be
000003b0: af37 923e 2ee9 f3be 1371 1ebe f2ab 413d
000003c0: c92d aa3e bbf6 b5be adce 4f3e 2552 843e
000003d0: ea5a 9dbe 8560 ffbd 0b71 87be 4787 853e
000003e0: 75f0 21bd 6201 bcbe 4422 223e 1212 c83e
000003f0: db58 883e ef55 0a3e 2a12 503d 27ea cdbe
-0.1636083 -0.619587 0.2857775 0.8405406 0.45382068 0.71837574 -0.017724918 -0.053091656
-0.085954696 -0.14548118 -0.44994664 0.47934628 -0.15792225 -0.47353044 -0.2031898 -0.6790261
-0.46101272 0.88568556 0.64752895 0.31248504 0.28265557 0.25934544 0.25389823 0.40988436
-0.26327452 -0.17632762 0.028150912 -0.4172319 -0.41392797 0.07775258 0.54479504 0.34501702
0.20511143 -0.16681972 -0.9010925 -0.275082 0.16069694 0.16509737 -0.049822174 0.33299515
0.5481113 0.034435 0.4539772 0.47641674 -0.3525874 0.29182222 -0.30920494 0.312133
-0.4617958 -0.17919837 0.078668185 -0.4941306 -0.10813872 0.51659155 0.28091148 0.37370908
-0.5310258 0.037362017 -0.41888243 -0.06348226 0.35658205 0.25864795 0.06627228 -0.34775138
0.09012218 -0.1172387 -0.023536107 -0.050374553 0.4664841 -0.9450802 -0.28784853 0.50988835
-0.36537185 0.32226807 -0.52974313 -0.07524792 -0.48977754 -0.13362631 -0.21472889 0.51099306
-0.33760008 -0.76856077 0.7933813 0.3463597 -0.4296878 0.01571434 0.5038594 0.3336381
0.2551538 0.25810176 0.00023384689 -0.64606786 -0.7101036 0.1407802 -0.16131078 -0.20239606
0.33077917 0.32047057 0.7108576 -0.61659324 0.13363074 -0.16292222 0.11706384 -0.56115377
-0.33768597 0.19837561 0.38755274 0.16763611 -0.2765642 -0.31270662 0.4652973 -0.35895464
-0.22546715 0.4029066 0.5136845 -0.27120733 0.44682428 0.21283518 0.053244315 0.54933894
0.74798197 0.075563714 0.94542515 0.034369644 0.5112713 0.12524642 -0.6232574 -0.14833565
-0.5701673 -0.19188713 0.10221794 0.19205491 -0.50857687 -0.23021528 0.606222 -0.39766142
-0.24481164 -0.25604144 0.5074655 0.22158748 0.09025264 -0.02584316 0.7225722 0.004428234
-0.31954956 0.18316865 0.071888454 0.26553217 0.28914857 -0.325655 -0.6398933 -0.7505779
-0.34955022 -0.86227983 0.290083 0.08702889 -0.25959828 -0.16681023 0.16948617 0.52879167
0.2676159 -0.21032053 -0.09552456 0.5197484 -0.38103983 0.026236663 -0.35170513 -0.45421177
0.30121657 0.54686743 0.4191262 0.086759366 0.0977218 -0.062102824 0.5020312 -0.07364923
0.41982016 0.010604849 -0.21709494 -0.020738684 0.72382563 0.14227566 -0.83970183 -0.68021744
-0.20264465 -0.09026898 -0.028745808 0.514358 -0.6707672 -0.05035412 -0.11052338 0.12684926
-0.19968678 -0.5968946 -0.81831264 -0.07930789 0.145131 -0.11622323 0.30126518 0.028977169
-0.11424607 0.7372844 -0.32792974 -0.08218527 0.47593397 0.109999835 -0.49734616 -0.2357985
-0.059193853 0.84671193 0.4473965 0.052888516 -0.48996407 -0.06165609 -0.20733911 -0.20923147
-0.6806142 -0.17535032 -0.13774085 -0.04526826 -0.3988746 0.387112 -0.6253444 -0.42748427
0.35782513 0.75995237 -0.25511712 -0.135897 -0.067067996 0.21626908 0.4636942 0.15621072
0.1786589 -0.7067942 -0.031668987 -0.28693762 0.28558108 -0.4763884 -0.15472822 0.04728312
0.33238056 -0.35539803 0.20293684 0.2584392 -0.30733424 -0.124695815 -0.26453432 0.2607977
-0.03953596 -0.36719805 0.15833384 0.39076287 0.2663029 0.13509344 0.050798573 -0.40217707

encoder_x3.weight f4 [7, 128]
00000000: c9df dcbe 43da 213f 2b41 193f 6a4c 683f
00000010: 9d0c 5b3c 72ed 94be 0737 9c3e 9a4d 883d
00000020: 774d aa3e 81dc 8f3d a8c7 33bf 6587 c4bc
00000030: 256d 81bf 6b4d 703f 39bb e83e cec3 6d3f
00000040: 4f3a c0be 0280 013f 32e7 1bbe 5871 0bbf
00000050: a044 23bf b4cb 68bd f093 aebf d064 a2be
00000060: 2ce8 be3e fb7f 013e 4caa 5cbf d1bf 513f
00000070: 4082 0c3f 9516 713e 5713 df3e c170 dabd
00000080: bfe4 05bf 9630 983e e466 443f 1b98 8d3e
00000090: 2e1e c0be 9a7f bb3c 3614 b8bd 76f4 3dbf
000000a0: 83f5 3dbf 2851 263f b02e 193e 167c aebc
000000b0: 7253 29bf d940 f4be 8746 83bf 7578 cf3a
000000c0: a9f0 d13e e304 2bbf 4e8a 803c 4462 b2be
000000d0: faac d73e 47ca 9bbc b1d7 843f cf4f 5f3f
000000e0: 398e 12bf 0b13 3f3f 5313 dabe edf5 a83e
000000f0: 9494 01bf f01a d9be 12a9 4b3e 78fb bdbd
00000100: 8186 1a3f 1767 d53d d270 afbe ed37 3a3d
00000110: f662 9a3d 6d96 2dbf 4310 413e fedf 36be
00000120: db6e 123e 3ffe 15bf 1e66 e93e e5e2 aebd
00000130: c026 f2bc 3d13 82be 7890 21be 6dd2 e33e
00000140: 433a 8ebe 403e f9be c24d 153f 9f4b aabd
00000150: af09 84bf 53fa 40bc 8408 1cbc cf83 003f
00000160: b341 163f 5356 37bf 9d50 0d3f 7aa9 f2be
00000170: c1ad e93e b6b9 5e3e 4881 76bd bd47 37bf
00000180: 17c8 a73e f560 683e 658e 873e cd80 04be
00000190: 1611 53bf 9122 173f e822 82be f77d 17bd
000001a0: dd01 993e 5419 f0be ca24 5dbe c1b4 26bf
000001b0: e55e 54bf d750 ddbd 54d3 493f 8799 073e
000001c0: 15c8 583e 282f 71be 700a 2fbe fe18 4c3f
000001d0: 2622 9fbe 712b d6bd 8281 343f f5b6 f03e
000001e0: a8c5 47bf 93ee f2be 2123 72bf cfa3 b2be
000001f0: d907 e8bd f1fa e0bd e42e 8dbe 5803 5f3c
00000200: 6438 273f c86b c03e ab8b 713e c186 c33b
00000210: 050f cdbd 64b1 88be b48e d2bd e2b0 dcbd
00000220: 3431 f5bc 6048 cbbf e85b 31bf e7a5 1dbf
00000230: 7d39 4e3f 2bf2 113f f37e 6a3e d763 99be
00000240: 84d7 9fbe 43f2 70be 2f60 2a3f 0de3 41be
00000250: 7d8c c0bd e033 4abe 2be6 f03e d3d1 9dbe
00000260: 3da3 fb3e a164 85be e4de a9be 6448 1cbf
00000270: e4d8 7d3f e1e7 7abf 3ef5 493f 0402 ef3c
00000280: fee4 9fbf 6015 bf3e f06f d7be 2290 64bf
00000290: 943c 4b3f d1c1 cabf 6004 4cbd a343 c5bc
000002a0: 222e 2dbe 5fea 08be fdaa 8c3e ab77 a13f
000002b0: c534 58bf 7ed8 3d3f 0369 9d3d e6c3 9d3e
000002c0: 3a2d 34bf 08cd 61be cbe0 65be d069 23be
000002d0: 6340 d5be a87d de3d a966 81bf de24 59bf
000002e0: 11ef 34bf ec89 72be 2ecc da3c 4bef a83e
000002f0: 2770 96be 8a9c 0cbe 9e37 b63e 5b9e e53e
00000300: c7a0 73bf 78d0 ce3e 1b4e 60be ef8b f93e
00000310: e1eb 39bf 82e1 123e 267d 03bf 2d31 983e
00000320: dec6 90bc 7cf8 763e a013 b53c 9e35 233c
00000330: 540d 393f 45c8 023f 590b e9be 7902 a7be
00000340: f00a 83bc 8e69 2ebf 6dc6 ccbf 119a b13f
00000350: 467d 943d 6c57 a0bf 4b1a b5be 24e1 82be
00000360: 6a97 00be 9982 f1bd 7d5c aabe 098a 943e
00000370: eb5a 033e 7683 b33d 4950 6d3f 9af1 6cbf
00000380: fc43 3cbf bac1 80be 4244 95bf 34bb 873f
00000390: 70df 7c3d 88e5 9fbe 1c49 aebe e692 173f
000003a0: b62a 203f 2acd 263a 702f 35be c543 cebd
000003b0: d633 02bf 1b4f 583f 6bfa 193f d0b6 efbd
000003c0: 2886 7dbf 5da1 143f 7314 ca3d 26f9 85bf
000003d0: 9b71 613d e5d5 033f 0825 1bbf c47b ad3e
000003e0: d73b 1a3f 11d2 1ebe f9b5 b93e 6e43 46bf
000003f0: 7a69 193d aad8 60bf c97d 45be c978 afbd
-0.43139485 0.63223666 0.59865063 0.907416 0.013369706 -0.29087406 0.30510733 0.06655426
0.33262226 0.0702448 -0.70226526 -0.023990342 -1.0111433 0.9386813 0.4545534 0.928769
-0.37544486 0.5058595 -0.15224913 -0.54469824 -0.6377659 -0.05683489 -1.3638897 -0.3171754
0.37286508 0.12646477 -0.8619735 0.81933314 0.54886246 0.2354377 0.43569443 -0.10666037
-0.52302164 0.29724568 0.767195 0.2765511 -0.37523025 0.022887994 -0.0898823 -0.7420114
-0.74202746 0.64967585 0.14959216 -0.021299403 -0.6614295 -0.47705725 -1.0255898 0.0015828746
0.41003922 -0.6680433 0.015690949 -0.34840596 0.42124158 -0.019017352 1.0378324 0.87231153
-0.57248265 0.7463843 -0.42592868 0.33000126 -0.5061734 -0.42403364 0.19888714 -0.092764795
0.60361487 0.104200535 -0.34265763 0.04546349 0.075384066 -0.67807657 0.1885386 -0.17858884
0.143001 -0.58591074 0.45585722 -0.085393704 -0.029559493 -0.25405303 -0.15777767 0.4449648
-0.27778825 -0.48680305 0.58321774 -0.08315205 -1.0315455 -0.011778432 -0.009523515 0.50201124
0.58694 -0.71616095 0.5520113 -0.47394925 0.45640376 0.2175053 -0.060181886 -0.7159384
0.32769844 0.22693236 0.26475826 -0.12939759 -0.82447946 0.5903712 -0.25417256 -0.036985364
0.29884234 -0.46894324 -0.21596065 -0.6511956 -0.829573 -0.108064346 0.78838086 0.1324216
0.21170075 -0.23553145 -0.17093825 0.79725635 -0.3108074 -0.104575045 0.70510113 0.47014585
-0.78035975 -0.47447643 -0.9458485 -0.348906 -0.11329622 -0.10985363 -0.27574837 0.013611637
0.6532042 0.3758223 0.23588435 0.0059669917 -0.100126304 -0.26697838 -0.10281125 -0.10775925
-0.029930688 -1.5881462 -0.6928086 -0.6158127 0.8055647 0.57010144 0.2289999 -0.29958984
-0.31219113 -0.23529916 0.66553015 -0.18934269 -0.09401796 -0.19746351 0.47050604 -0.30824146
0.49147978 -0.26053336 -0.33177865 -0.6104796 0.99159074 -0.9801007 0.78889835 0.029175766
-1.2491758 0.37320995 -0.4207759 -0.8928243 0.7938931 -1.5840398 -0.04980886 -0.024080103
-0.1691213 -0.13370655 0.27474204 1.2614645 -0.8445552 0.74158466 0.07686045 0.3081352
-0.7038151 -0.2205087 -0.22449033 -0.15958333 -0.41650686 0.10863811 -1.0109454 -0.8482188
-0.70677286 -0.23685426 0.026708689 0.32995066 -0.2938244 -0.1373159 0.35589308 0.44847378
-0.951672 0.40393424 -0.21904795 0.48739573 -0.7262555 0.14343837 -0.51362836 0.29725018
-0.017672952 0.24118227 0.022104084 0.009961514 0.7228596 0.5108684 -0.4551647 -0.32619074
-0.015996426 -0.68129814 -1.5998055 1.3875142 0.072504565 -1.2526679 -0.35371622 -0.25562394
-0.1255776 -0.11792488 -0.33273688 0.29011562 0.12827651 0.087653086 0.9270063 -0.92556155
-0.73541236 -0.25147802 -1.1661456 1.0604005 0.061736524 -0.31229806 -0.34040153 0.59208524
0.6256517 0.0006362969 -0.17693877 -0.1007152 -0.50860345 0.84495705 0.6014773 -0.117047906
-0.9903283 0.5805872 0.09867182 -1.0466659 0.055039983 0.5149825 -0.6060338 0.33883488
0.6024756 -0.15509821 0.36271647 -0.7744664 0.037454106 -0.87830603 -0.19286264 -0.0856796

encoder_x4.weight f4 [13, 128]
00000000: 0da7 093f 8760 e6bd 7b3e 5abe b339 24bf
00000010: c17b 1cbe 68aa 873e 816e 06be 9b35 523d
00000020: 4c6b 0bbf 6e4d 57bc 1874 4fbe 7e1a fcba
00000030: 540b b83e 1434 563e 49d4 41be e777 39bd
00000040: cca7 85be 0b3a 88bd 5329 aa3e d616 53bd
00000050: 0afb a83e 85db edbe c92f 72bf ce06 353e
00000060: 307d 99bd 23f1 dbbd f116 8fbf 3252 edbd
00000070: e0cf 1c3f cb43 b8be 978b e4bd d276 77be
00000080: 312f 723e de81 3dbd b17c 01be b56c eabe
00000090: 140f 643d 7a4e 543d 409f 283e e947 fcbc
000000a0: f938 acbe b033 d63b fd68 0abe afc6 c53e
000000b0: 6626 683d 0217 023e c859 b33e 8991 74bd
000000c0: 782b 80be fd6b 6e3e bc8f 5ebd ba8e 373f
000000d0: df93 eebd cc81 a9be 2969 8abf b7e4 09bf
000000e0: 4071 6a3e 002e 07bf 3465 c53e 6964 80be
000000f0: 900a b23e 1e58 bf3e ddd0 d8be bcfd 91bd
00000100: 79d6 2abd f287 74be 5b34 703e f03e d1be
00000110: 8654 54be 836d d73e 2330 1fbf 5895 f03d
00000120: 45ea 9c3e bdb8 d5bd 48cd 56bf 6917 07bf
00000130: f3a3 adbd 22bc 9abe e515 d03e 8a57 81bd
00000140: 7de1 b53d cabd e13d 9089 103f 4654 4f3e
00000150: dc8a 273e 6678 9d3e c426 f0be ad37 20be
00000160: 7cc8 8dbe 2d42 1a3f ff7d 9abe 3905 973e
00000170: af27 e83a b3e8 2ebe fd95 1e3f c212 f73e
00000180: 1976 713e afb1 9fbd 0f0a f63c 9dde f53d
00000190: 600e a03e d645 a6bd 58bc fabe a3ac aa3e
000001a0: 0b6b 1d3d f2dc 5f3c d0ac 77be 191a 753e
000001b0: eb7b 903e def7 b13e e039 5f3e afd8 083f
000001c0: e529 723e 2de3 3ebe 3897 78be cf2f 03bd
000001d0: 31cc a9be 4ba4 a03e f1d3 d6be affa 093f
000001e0: 0406 f5be 825d 42be 6420 47be e6b3 ff3c
000001f0: aa15 abbe aff8 5cbe 2d53 083f 519a 613e
00000200: 624f b33e e9c1 243e 5260 fdbe b486 44be
00000210: 0d99 14be 35ca 833f 4493 af3d 92fa ee3e
00000220: ddd5 9c3e 5bc4 273f e01a 9bbe 70eb 043f
00000230: 5589 383f 57cb 093e f2a1 18bf 5408 ae3e
00000240: bd5a e3be f047 98be df97 283e 14cc 58be
00000250: f9b8 31bf 71ec edbd 0b4b 92bf 9585 3c3f
00000260: 4504 2f3f 8d50 ee3e 3967 26bf a54a 67bf
00000270: a66e 43be a5ac ccbd 3aa3 113f 0d15 76be
00000280: c899 87bd ef87 4e3c 7886 5bbf bd8c 4d3e
00000290: 7946 9fbd ca2c f1bd 7d05 febd c9f6 a6be
000002a0: 160b 0ebf b754 00bf 3958 9f3e 81f2 ac3e
000002b0: b587 873f faf5 553d 1b0b c6be baf3 c23c
000002c0: 962a b7bd d862 10be 4caf 4ebf 2b18 23be
000002d0: 9e46 f73e b68c 23bf 0c64 a3be f75a 73bd
000002e0: 9ff8 7f3e 230f eebd 911a c03e 7386 a03e
000002f0: 9d32 0dbf 6fb2 fd3e 5817 e3be 922c 243e
00000300: 42b5 a4be e43b 163d a1e5 a03e 6777 ecbe
00000310: 6ca9 0abf 9666 ccba 801f 02be 245c a63e
00000320: 7768 393e f1a4 e83e 3ee6 a4be 0a3f b7bc
00000330: fa9d 13bf 374d 843d 99c7 8e3e dc15 a53e
00000340: 687e 51bc ee95 a6be 9f73 0f3f 6bce 263e
00000350: 7dd2 ebbe 508a 1dbf 11b3 acbe e40c d4bd
00000360: 7ee3 643e 4383 b5bd e9de 5ebf 1164 90bd
00000370: bb40 873e 2c86 1a3f 1266 0f3f 25b9 e93e
00000380: bbdc a03e ff85 bebe 52c0 b93e dcb4 02be
00000390: a84f 97be 98b0 cb3d a86d 36bd a1a2 bfbc
000003a0: 3400 17bf 4fc6 02bd 1ff2 593e ce42 17be
000003b0: f2e2 b2be 6443 5c3f 925c 5ebe b997 f73e
000003c0: 03b4 ffbe 4b8e c5be c847 a8be d107 0abf
000003d0: ff03 c63e 7d69 0abf 91c9 88bf 6726 053f
000003e0: 0fe7 16bf 2e52 27be 0b98 5abf 0c08 fd3d
000003f0: 4c4f f93d 75b1 273f 50aa 16bf 214c 133f
0.53770524 -0.1124888 -0.21312897 -0.6415054 -0.15281583 0.26497197 -0.13128091 0.051320653
-0.544606 -0.013141019 -0.2025913 -0.001923397 0.35946143 0.20918304 -0.18928637 -0.045280363
-0.2610458 -0.06651696 0.33234653 -0.05153545 0.33004028 -0.46456543 -0.94604164 0.17678377
-0.07494581 -0.107393526 -1.1178876 -0.11587943 0.6125469 -0.35989222 -0.11159437 -0.2416642
0.23650815 -0.04626643 -0.12645222 -0.45786062 0.055678442 0.051832654 0.16466999 -0.030796008
-0.33637217 0.0065369233 -0.13516612 0.38628146 0.056677245 0.1270409 0.35029435 -0.059709106
-0.25033164 0.23283382 -0.054336295 0.7170216 -0.11649298 -0.3310684 -1.0813342 -0.53864616
0.22894764 -0.52804565 0.38553774 -0.25076607 0.34773684 0.37371916 -0.4234685 -0.07128474
-0.041708443 -0.23879984 0.23457472 -0.4086833 -0.20735368 0.42075738 -0.62182826 0.11747235
0.30647483 -0.10435627 -0.83906984 -0.52770096 -0.084785365 -0.3022166 0.40641704 -0.06315525
0.08880899 0.110225275 0.56459904 0.20246992 0.16361564 0.3075592 -0.46904576 -0.15646239
-0.2769202 0.60257226 -0.30174252 0.29496172 0.0017712022 -0.17080955 0.61947614 0.482565
0.23580207 -0.07797562 0.030034093 0.12005351 0.31260967 -0.08118789 -0.4897182 0.33334836
0.038432162 0.013663517 -0.24187016 0.23935737 0.28219542 0.3475942 0.21799421 0.5345563
0.23648794 -0.18641348 -0.24276435 -0.032028016 -0.33163598 0.31375346 -0.41958573 0.5389814
-0.47856152 -0.18980983 -0.1944595 0.031213712 -0.33414966 -0.2157924 0.53251916 0.22031523
0.35021502 0.16089596 -0.4948755 -0.1919201 -0.14511509 1.0296084 0.085730106 0.46675545
0.30631915 0.6553399 -0.30293941 0.5192175 0.7208455 0.13456474 -0.5962211 0.3399073
-0.44405165 -0.29742384 0.16464184 -0.211716 -0.6942287 -0.11617363 -1.1429151 0.7364133
0.6836589 0.4654583 -0.65001255 -0.90348274 -0.19085178 -0.09993867 0.5688969 -0.24031468
-0.06621128 0.012605651 -0.8575206 0.20073219 -0.077771135 -0.11776121 -0.124033906 -0.32610157
-0.55485666 -0.50129265 0.31121996 0.33778766 1.058829 0.052236535 -0.38680348 0.023797859
-0.089436695 -0.14100206 -0.8073623 -0.15927188 0.48296064 -0.6388658 -0.31912267 -0.059412923
0.24997185 -0.11623981 0.3752027 0.31352577 -0.55155355 0.49550197 -0.44353747 0.16032627
-0.3216954 0.03667821 0.31425193 -0.46184847 -0.5416477 -0.0015594538 -0.12707329 0.32492173
0.18106256 0.4543834 -0.3220691 -0.022368927 -0.5766293 0.0646004 0.27886656 0.3224324
-0.012786485 -0.32536262 0.560358 0.1628968 -0.46059027 -0.61539173 -0.33730367 -0.10354021
0.22352406 -0.08862927 -0.87058884 -0.07050336 0.26416573 0.6036098 0.5601512 0.45649067
0.31418404 -0.37211606 0.3627954 -0.12764305 -0.2955296 0.09945792 -0.04453817 -0.023392977
-0.58984685 -0.031927403 0.21283768 -0.14771578 -0.3493877 0.8604033 -0.21715 0.48357943
-0.49942026 -0.38585123 -0.32867265 -0.53918177 0.38674924 -0.5406721 -1.0686513 0.5201172
-0.5894632 -0.16339943 -0.8538825 0.123550504 0.12173328 0.6550515 -0.58853626 0.5753804

encoder_x5.weight f4 [6, 128]
00000000: 73d4 b8bd 642e 763f 36ec 89be 8f9a 123f
00000010: d67e 8abe d8ca b53c 31cd e1be e205 683f
00000020: 5d9b 92be a633 2c3d 0f19 80be f0c7 fcbd
00000030: 2013 44bd 9dd5 273e 6138 2dbe 1e1c a13e
00000040: 2213 853d 9af1 ebbd c88b e3be 8ca6 afbe
00000050: bad1 79bf 7b2c 07be 1662 65be 8921 523e
00000060: 96f2 66bd daed dabd 57bb 35be cc8f 983e
00000070: a241 553e 7bd4 5b3e 2b24 0f3d f957 80bf
00000080: f62b 02bf d349 ac3e cd55 c13e 471f af3e
00000090: be80 72be 316b d63e 2462 88bd 6629 633d
000000a0: b216 36bf 853b 203e 8f71 47bf f844 e73e
000000b0: afe3 a13e b470 a1be 5e7b c9bd 36e5 2f3e
000000c0: a3f5 f03c ae9b 18be c00b 8bbe cecb 223d
000000d0: 1d21 cfbe 1757 00bf bd52 c63e d1d1 1b3d
000000e0: bdfd 9b3e 88d2 a23e bc2e 6b3e ce11 493d
000000f0: 20f6 17be 0274 28bf e5cd 683c 0b79 003f
00000100: 1f15 38bd 7212 b53e 9e90 053f 94e2 483f
00000110: c62e b3bf 2651 fd3e 9325 68bf 092b 19bf
00000120: 286f 75bd 4ccd e0be 1b07 77be d9fa f1be
00000130: c6ac 9fbe 6a87 febe bdd3 313d f1e9 04bf
00000140: db42 36bd b696 03be 6cb7 1d3e e034 79be
00000150: c5ef 06bf aa49 013e 3272 c0be ef5c 95be
00000160: f64d 693e 0c17 ffbd 5fc0 45bf 36fd 7a3d
00000170: b019 4b3e 5553 45bf d286 8cbe 71df 0abf
00000180: 86ef c7be 894f e4be 32b5 10bf 3484 0abe
00000190: 68a5 2c3d 807e 10bf 9fcb ecbe 6574 2c3d
000001a0: 68f9 b03e 866d 003f ea8e 623e f8d5 f9bc
000001b0: 7687 1ebf 248d d53c eaca fc3e a9a8 67be
000001c0: 0db1 9bbe 1bb8 7ebd c411 fabe d6f8 c6be
000001d0: f584 24bd 704c 983e d13b 4ebe b977 0bbf
000001e0: 4a68 fbbd 80d1 203d 9f96 1ebf 1d64 5fbe
000001f0: 9728 58be d62e 86bd 0ca2 eb3c 9ef1 8fbd
00000200: 2c99 3cbd bd93 d33e 62f8 68bf 1409 c83e
00000210: 305b 9bbe 4b6c 743e c5da 17be 22aa d13e
00000220: 9b0b 5cbe 5898 8cbe b5b4 f13e d88b d5be
00000230: 644c 393f b9eb 17bf bf37 2e3f fd51 f33e
00000240: d217 a13d db20 c6be b531 80bf 8f83 bdbe
00000250: 38d8 4ebf e99f 7f3e 2f32 d7be e7ad 00bf
00000260: d861 973e 4956 b0be 11c9 afbe 2817 d1be
00000270: 512f 8c3e e8f1 03be a7a8 2d3e a4e2 14bf
00000280: 33a6 91be 09e5 b9bf 8246 123f 6deb a4be
00000290: abd6 8dbd 8140 5f3e 8849 26be 567f 073f
000002a0: e2b0 7cbe f8d1 afbe d291 febe c476 1b3e
000002b0: 9d37 6f3e e5f1 61bc 62b6 2b3e edf3 6ebe
000002c0: 20ee 33be 5492 e73e 5a97 db3d 4475 843e
000002d0: 78f8 b0be 48cf 09be 66b6 8fbd 9582 f13d
000002e0: 1739 97bc 196d 5bbf 50f3 933e 42af d1bd
000002f0: 4242 843e abfb e0be 40e8 afbe 9202 eb3e
00000300: 6afa d83e 9a51 8abe e382 833a 6c70 41bd
00000310: 87a0 51be d762 a9be 6245 11bf 558c c83d
00000320: 5796 833e e10c 9cbd eb2e e8be 4020 cebe
00000330: 0e62 313f 942f 51be 6c5b bdbe 6b34 8ebe
00000340: e610 273e a6b1 923e e4ec ec3d f870 5fbe
00000350: e97a ae3d 3d6b 703e 311c 593d 469f efbd
00000360: bb2d b4be 506e d83e 0ab2 0bbf 129c 013f
00000370: 07ff dc3e a2a4 8dbe f478 00be fd49 d6be
00000380: 18f3 aebe 31f3 853e ef7c 97bf 6a6a 8f3e
00000390: 7e69 d0be 81d0 bc3c eba8 a33e 2ac6 83bd
000003a0: b685 c7bd 0527 593f 762e 2bbf 2f0a b23e
000003b0: f601 76bb 7310 c83e 4fa5 dfbe f846 c6bc
000003c0: 15d2 8d3e a255 ffbd 6b59 37be dd50 24bf
000003d0: 853b 67bf f891 2b3e 1506 143e 7c2e aa3e
000003e0: d380 38bf d06d b8bd c739 3abf ab6f 38bf
000003f0: ff4b 573e 6cff e8be c0d1 04bd e02f b4be
-0.090248965 0.96164536 -0.26938027 0.5726709 -0.27049893 0.02219145 -0.4410186 0.90633976
-0.28634158 0.042041443 -0.25019118 -0.123428226 -0.0478698 0.16390081 -0.16916038 0.31466764
0.0649779 -0.11520691 -0.44442582 -0.34306753 -0.9758564 -0.13200562 -0.22400698 0.20520605
-0.05638369 -0.10689898 -0.17747246 0.29797208 0.20825818 0.21467774 0.0349466 -1.0026847
-0.5084833 0.33650073 0.37760773 0.3420355 -0.23681924 0.41878656 -0.06659344 0.055459403
-0.7112838 0.15647705 -0.7790765 0.45169806 0.3161902 -0.31531298 -0.098379835 0.17177281
0.029414004 -0.14903137 -0.27157402 0.039745145 -0.4045495 -0.5013289 0.38735 0.038041893
0.30467024 0.31801248 0.22967046 0.049089245 -0.14839983 -0.65802014 0.014209245 0.50184697
-0.044942018 0.35365635 0.52173793 0.7847073 -1.3998649 0.49475974 -0.90682334 -0.5983129
-0.05992046 -0.4390663 -0.24123804 -0.47261694 -0.31186503 -0.49712688 0.04341482 -0.51919466
-0.044497352 -0.1285046 0.15402001 -0.24336576 -0.5270961 0.12625757 -0.37587124 -0.29172465
0.22783646 -0.12455568 -0.7724666 0.061276637 0.19834018 -0.7708028 -0.2744661 -0.54247195
-0.3904993 -0.4459193 -0.5652648 -0.13526994 0.04214993 -0.56443024 -0.462491 0.04210319
0.34565282 0.5016712 0.2212483 -0.030497536 -0.61925447 0.026068278 0.4937356 -0.22622932
-0.30408517 -0.062187295 -0.4884168 -0.38861722 -0.04016586 0.29745817 -0.20140006 -0.5447956
-0.12275751 0.039262295 -0.6194858 -0.21815534 -0.21109234 -0.06551902 0.028763793 -0.07028507
-0.046044514 0.41323653 -0.91004 0.39069426 -0.30343008 0.23869435 -0.14829548 0.40950114
-0.21488802 -0.2745998 0.4720818 -0.41708255 0.7238219 -0.5934406 0.6805381 0.4752349
0.078658715 -0.38696942 -1.0015169 -0.37014434 -0.80798674 0.24963345 -0.42030475 -0.50265354
0.29566836 -0.3444083 -0.3433309 -0.4083798 0.2737985 -0.12885249 0.16958867 -0.58158326
-0.28447112 -1.4523021 0.57138836 -0.32210866 -0.0692571 0.2180195 -0.16238987 0.52928674
-0.2467685 -0.3433988 -0.49720627 0.15182024 0.23361059 -0.013790582 0.16768792 -0.23335238
-0.17571306 0.45228827 0.107222274 0.25870717 -0.34564567 -0.13457978 -0.070172116 0.11792485
-0.01845984 -0.85713345 0.2889657 -0.10238506 0.258318 -0.43942007 -0.3435688 0.45900398
0.4237855 -0.27015382 0.0010033514 -0.047226354 -0.20471393 -0.3308322 -0.56746495 0.09792391
0.25700638 -0.07619644 -0.45348296 -0.4025898 0.69290245 -0.20428306 -0.36983812 -0.27774367
0.1631504 0.2865116 0.11568621 -0.21820438 0.08519537 0.23478408 0.0530054 -0.11700301
-0.3519114 0.42271662 -0.5456854 0.5062877 0.4316332 -0.27664667 -0.1254614 -0.41853324
-0.3416984 0.26162103 -1.1835002 0.28010875 -0.40705484 0.023048641 0.31964812 -0.06434281
-0.097423 0.84825164 -0.6686777 0.34773394 -0.003753779 0.3907505 -0.43680808 -0.024203762
0.27699342 -0.12467505 -0.17905204 -0.6418589 -0.90325195 0.16754901 0.14455445 0.3323859
-0.7207157 -0.0900532 -0.7274441 -0.7204539 0.21025084 -0.4550737 -0.032426596 -0.35192776

encoder.linear1.weight f4 [128, 128]
00000000: 8af7 ee3d dee7 23be 5637 683e 7729 01be
00000010: cff1 543e 3dc4 9e3d 6144 a4bd e29b b8be
00000020: 7c95 293e 50e1 acbc e990 a7be 1350 5cbe
00000030: 8cee 1f3f 4537 88bd a007 833e 0089 0dbf
00000040: 7a0e fbbe dd9b b93d 3efb c93e 79f3 09bd
00000050: 5321 f43e 1fba 473f a1d2 6e3e a88a 3a3e
00000060: 15c0 043f 1229 8cbe 7ff4 eb3e 9bcd 7ebe
00000070: 5531 073f a7b1 c6be 2827 ed3e 76df 803e
00000080: 75e2 c0be 8f08 89bd cc04 8f3d 55be c3be
00000090: 11fe d33e 0bd5 d8be fed5 df3d c5b5 f1bd
000000a0: 6a0a df3e 93b5 dc3c 87d6 543f 8301 283f
000000b0: 9626 17bc 6efd e13e 2008 fabe 2cd8 bebc
000000c0: 2895 03be 1afd 13bf 568e eebd d4d7 6abf
000000d0: 4817 a2be 4e3c 2e3f c548 b13e 2426 333e
000000e0: 91a1 c8be 7f8d e73e ad50 0cbf ff63 bb3e
000000f0: 0b82 ac3e bb6f ebbb 6e41 863c 3f1e 99bb
00000100: ada4 1bbe 6d94 32be 2387 babe 33e1 7bbe
00000110: 2746 cd3d bc3f c8be a8bb 343f 4dea c93e
00000120: cb03 36be 8dde 963e f163 423f 39d4 ec3d
00000130: 85eb c03e c566 ee3e 704e b9be cca3 943e
00000140: c9e7 7ebd 5cba a3be 175c 8cbe 401e ee3e
00000150: c611 00be 555f a7be 00d5 f2bd 0438 f4ba
00000160: 13d4 053e 8300 60be bbb0 fb3e 8e3c 22bd
00000170: 5010 89bd 0957 763e 3d78 793d 9b0f 75be
00000180: f2ff 653e af92 68bd f265 5cbe 6f6a 173f
00000190: 29b7 6bbe fad6 fc3e 7072 0a3f f555 7f3e
000001a0: 7d40 053f 3b73 5bbe 1479 13bf 6181 debe
000001b0: 2d97 efbd 0aed df3e 9030 4e3e 81ad 0fbf
000001c0: f776 c6be 27c8 9e3e 811a 6e3e a022 cebe
000001d0: b9ba d13e 228a 92be a095 503e 33d8 333e
000001e0: f83a c93e 8ef8 c0be c116 8a3e 0e9d 95bd
000001f0: cdb8 db3e 023c 623e 5f67 1dbf 1371 8fbd
00000200: 4232 ddbd 859b 71bf 8657 7fbe 8f22 4abe
00000210: 6cba fcbe a892 28bd 722f fb3e d00f ebbe
00000220: cac3 7fbd 7fe8 a2bd d4a6 03bc c990 ee3b
00000230: a1b9 293e 369c bcbd e108 c8bd 7282 82be
00000240: 87b9 bb3e 97f0 5fbe b790 6ebe 8c76 163f
00000250: 45fa 3f3f 3785 dcbd a9a5 d2bd 78ea 9cbe
00000260: e592 ccbe e448 eabe 62f1 383d f27b 0ebe
00000270: d99e 733e f37a fdbe a5dd 31be 0f3e c4bd
00000280: bfc8 da3e 688d 34bf 88a9 20bd db2f ec3d
00000290: c083 dbbd 1801 f23e ac7f 043e 3141 0f3d
000002a0: 84ec 1b3f 5b26 b93b df68 993e e429 583e
000002b0: 91c4 abbc f6ec 963e 7129 6d3d 9aef f13c
000002c0: 233f 413e b8c0 d03d bee8 7cbd 1472 363e
000002d0: 4e72 c33d c9d7 d03d b919 76be 745d 08bf
000002e0: 4eda 7a3d 4909 96be ef01 82bd deb7 0dbc
000002f0: 8ca5 abbe 6b62 01bb f09b 4fbe 0854 61be
00000300: fa80 50bc 6ed3 2ebf f54e ccbe 1435 48be
00000310: 1879 4d3f f0fd 033e b7fc a3bd a285 a13b
00000320: a9f0 94bd ce3b bd3e 92a6 a4be 4962 ba3c
00000330: 675a ed3e ec88 5f3e ae17 81bc e918 1fbc
00000340: a4f3 863d 373e 6a3f c18e 883e 2e6b 05bd
00000350: e283 8fbd 15a9 9c3e 7c74 8dbc 6d94 f8bd
00000360: e9e2 65be fe9c e2bd 4f64 de3d cbba ba3d
00000370: f803 a0bd 0b46 7d3c 66db 45be 95e4 333e
00000380: 803f 333f 1c21 0c3e 184b 1abd 27ea d6bd
00000390: 0750 a6bd 16d7 8c3d 9fb8 89be 328d e13e
000003a0: e8d7 5dbb 234a 2ebf 9b65 58be b9cf 40bd
000003b0: 7d2c 173f ba18 bfbe 7424 86be 7f12 efbd
000003c0: d3a8 8e3e 7928 40be f54d 383e 336e adbe
000003d0: 84ae 93be 2d81 a6bc 9513 57bd 55ac 3d3e
000003e0: 8e56 423e b14a ebbe a7db 2e3f be29 013f
000003f0: e2a1 1dbe b91f 38be b7ab 683e 6c49 c3be
0.11668308 -0.16006419 0.22677359 -0.12613474 0.20795368 0.07752273 -0.08020855 -0.3605643
0.1656093 -0.021103531 -0.32727745 -0.21514921 0.6247337 -0.06651167 0.25591755 -0.5528717
-0.49034482 0.09062932 0.39449495 -0.03367946 0.47681674 0.78018373 0.23322536 0.18216956
0.51855594 -0.27375084 0.46084973 -0.2488312 0.5280965 -0.38807413 0.46318936 0.25170487
-0.37672773 -0.066910855 0.06983337 -0.3823115 0.41404775 -0.4235004 0.10929488 -0.11802248
0.43562633 0.02694205 0.8313984 0.65627307 -0.009225508 0.44138664 -0.48834324 -0.023296438
-0.12849867 -0.5780808 -0.11648242 -0.9173558 -0.31658387 0.6806077 0.3462583 0.17495018
-0.39185765 0.4522514 -0.548106 0.36599728 0.33692965 -0.00718495 0.016388621 -0.004672795
-0.15199538 -0.17439432 -0.36431226 -0.24597625 0.10023146 -0.39111125 0.7059884 0.3943657
-0.17774884 0.29466668 0.7593375 0.11563916 0.37679687 0.46562782 -0.36192656 0.29031217
-0.062232766 -0.31978118 -0.2741401 0.46507454 -0.1250678 -0.3268992 -0.11857033 -0.0018632417
0.13069181 -0.21875195 0.49158272 -0.03960853 -0.066925645 0.24056639 0.060905684 -0.23931734
0.22460917 -0.056780513 -0.21523264 0.5914678 -0.23019089 0.49382764 0.5408087 0.24935134
0.52051526 -0.21430676 -0.57606626 -0.43458083 -0.11698756 0.43735534 0.20135713 -0.5612412
-0.38762638 0.3101208 0.23252298 -0.40260792 0.4096277 -0.28621012 0.20369577 0.17562942
0.39302802 -0.37689632 0.26970485 -0.073053464 0.4291443 0.22093204 -0.61485857 -0.07003989
-0.108006015 -0.9437793 -0.24935731 -0.19739746 -0.4936098 -0.041155487 0.49059635 -0.459105
-0.06244258 -0.07954501 -0.00803538 0.0072804433 0.16574718 -0.09209482 -0.097673185 -0.25490147
0.36664984 -0.21869121 -0.23297392 0.5877464 0.74991256 -0.10767596 -0.102855034 -0.30647635
-0.39955822 -0.45758736 0.045152076 -0.13914469 0.23791064 -0.49507865 -0.17369707 -0.09582149
0.42731282 -0.7052827 -0.039224178 0.11532565 -0.10718489 0.4726646 0.12939328 0.03497428
0.6090777 0.0056503243 0.29962823 0.2110973 -0.020967754 0.29477662 0.05790085 0.029533196
0.18871741 0.10193008 -0.061745398 0.17816955 0.09543286 0.10197408 -0.2403325 -0.532676
0.061243348 -0.2930396 -0.06348025 -0.008649794 -0.3352474 -0.00197425 -0.20274329 -0.22004712
-0.012726063 -0.68291366 -0.3990399 -0.19551498 0.802629 0.12889838 -0.08007186 0.0049292604
-0.07272465 0.3695969 -0.32158333 0.022751944 0.46358034 0.21829575 -0.015758362 -0.009710529
0.065894395 0.9150118 0.26671413 -0.032572918 -0.070075765 0.3059775 -0.017267458 -0.12137685
-0.2244984 -0.110651 0.10858976 0.09117659 -0.07813257 0.015458594 -0.19321975 0.17567666
0.7001877 0.13684505 -0.03766927 -0.1049388 -0.08120733 0.06876962 -0.26898667 0.44053036
-0.0033850614 -0.68081874 -0.2113251 -0.0470731 0.5905226 -0.37323552 -0.26199687 -0.1167345
0.27863178 -0.18765439 0.17998488 -0.33873138 -0.28844082 -0.020325268 -0.05250891 0.1852277
0.1897833 -0.45955423 0.6830391 0.5045432 -0.15393785 -0.17980851 0.22721754 -0.38141954

encoder.linear1.bias f4 [128]
00000000: 5cd9 2e3e 1ae7 9dbe 29be b43e f37b ae3e
00000010: 84ff 4a3f cff9 02be 2a74 7e3f 70df 0d3e
00000020: 474b 813f 60c2 833e 39db ba3e 101d 963d
00000030: 2e2c 943e 8585 0abd 0c24 433d 5831 953e
00000040: 8f90 823f ed69 aa3d b83a 87be 22d9 efbd
00000050: 131c 173f d645 263e 6d0b 213e 1588 8d3f
00000060: d831 3c3e 0361 ea3e 6ec2 bdbe 0fad 3d3e
00000070: 9ea4 f7bd d84d e83d 22a6 523f 804a 0c3f
00000080: 5bb3 613e 8c18 0a3d 1f57 bd3e 8c61 50bc
00000090: 2bdc 303e 6a1b 463f 6328 083f 3ed2 d83e
000000a0: 9c8a 263f f62c 4f3c 1552 c63e 5ef6 823f
000000b0: 7cc1 d23c a7a6 1cbe 64dd 0f3c 0fd6 08be
000000c0: 9d1e 0a3f 700c 8b3f c39a 88be 6447 383f
000000d0: 620b 583d 257e 1f3d c749 973d 5583 af3d
000000e0: 481e a63e 295e 9fbc 3afb ca3e c64b a0be
000000f0: 84a8 123f 47a8 283f cba9 93be 243a 383e
00000100: a06e 8dbe e4bc 7d3d fea5 953e c2ec 4e3e
00000110: 3f75 1d3e a7c9 a63d 6145 d9be 1cd5 9c3e
00000120: 4e05 91be 9004 ff3e f6ee 2fbe 34f5 ca3e
00000130: 1717 343e bda2 d83e 1892 c73e bac1 a53c
00000140: f0bc 3c3e bc54 623f d886 7c3e b077 7bbe
00000150: 8b84 103e 137a d83e ff41 903c 0db7 19be
00000160: 25d5 0f3e 6ab3 d63d c0d4 5abc d065 3e3f
00000170: eed9 823f 556a 8c3e 2204 a63e bd61 c43e
00000180: 3245 383f 4956 523e 7392 843f 54cb d03e
00000190: 7b4a 3fbe 24f5 c93e ea29 063e eae4 a63e
000001a0: 4dc1 723e 3990 9dbe ffb8 05be 8b4e 283e
000001b0: def8 9a3e 609b 073e 4041 703e bb25 93be
000001c0: c390 6c3e 62ee a93e 3948 04be c8f7 723e
000001d0: 0247 3b3f fa9f b03e 20c0 cfbb 8020 e93e
000001e0: faf0 9bbe 8067 3cbe a034 4b3e ae81 9a3f
000001f0: 3420 c9bc e3a0 433c 7974 7c3f d1a8 343f
0.17075104 -0.3084038 0.3530133 0.3407894 0.79296136 -0.12790607 0.99396 0.13854766
1.0101098 0.25734234 0.3649538 0.07329762 0.28939956 -0.03381874 0.0476418 0.2913921
1.0200366 0.08320985 -0.26411986 -0.11711337 0.5902721 0.16237578 0.15727015 1.1057154
0.18378389 0.4577714 -0.370624 0.18523048 -0.12091945 0.113429725 0.8228475 0.5480118
0.22041075 0.033714816 0.3698053 -0.0127185695 0.17271487 0.7738558 0.53186625 0.42347902
0.6505525 0.012644997 0.387345 1.0231435 0.025727026 -0.15297948 0.008780811 -0.13362907
0.5395296 1.0863171 -0.26680574 0.71983933 0.05274523 0.03893866 0.07387119 0.085699715
0.32444978 -0.019454079 0.39644796 -0.3130781 0.57288384 0.6588177 -0.2884048 0.17990929
-0.27623463 0.06194772 0.29228204 0.20207503 0.15376757 0.08143931 -0.42435744 0.3063134
-0.2832436 0.49808168 -0.17181 0.396402 0.17586933 0.4231166 0.38978648 0.020233978
0.18431449 0.88410544 0.24660814 -0.24557376 0.14113061 0.42280635 0.017609594 -0.15011235
0.14046152 0.10483439 -0.013356388 0.74374104 1.0222757 0.27424875 0.32425028 0.38355818
0.71980584 0.20540728 1.0357193 0.40780127 -0.18680756 0.3944484 0.13101926 0.32596523
0.23706551 -0.30774096 -0.13058852 0.16436212 0.30267996 0.13242865 0.23462391 -0.28739724
0.23102097 0.33189684 -0.12918176 0.23727334 0.73155224 0.34497052 -0.0063400418 0.45532608
-0.30457288 -0.18398857 0.19844294 1.2070825 -0.024551488 0.011940214 0.98615223 0.70570093

encoder.linear2.weight f4 [128, 128]
00000000: 3366 343c f25e e4bd 6f2f 583d a5aa de3d
00000010: c9a4 853d 8e06 94bd 0e2a 77ba 8229 15bf
00000020: 15c6 62bd c85a 2bbe 5b45 0dbe af2c e63d
00000030: a58e 8fbe 5bed 08be 3cb2 b7be 5bd0 a2be
00000040: ba98 16bd 300f 913e 07ec a3be a67a ae3e
00000050: 2787 6d3c 70ac 05bf 3e20 3ebe f195 5b3d
00000060: cd16 fdbd c6e9 843d c718 97bd 5ee1 30bd
00000070: a728 ae3e b188 6dbf 5793 c43d 6dde 73bb
00000080: f39f 863e a439 0ebc c476 5e3e bd36 573f
00000090: de8d f8bd 7aeb 7ebe 7f4a a2be 03d6 333d
000000a0: 87e5 0dbe 0a30 32bd 3cab b1bc ccd9 e93c
000000b0: 53d2 d63c 318c e73e 702f b53e 7146 4a3d
000000c0: 72bf 15be d390 483c 6918 4a3e d049 5fbd
000000d0: 01d8 353f 466e c73e 9f35 723e a513 8a3e
000000e0: d71a 2c3e fdd5 0a3f c21d bebd ac6d 823e
000000f0: 14c9 153f 185c 163e e467 863f 98e3 633e
00000100: 9748 5bbf 0093 20bf f59d 513e 6b48 3abf
00000110: 4d31 0dbe 3156 11be aea9 d93e c8fe e9be
00000120: f58a 0c3f 2ee5 6dbe d68d 863d e70c 9ebe
00000130: a2d0 5bbd 06ea 1a3e ef98 a0be 98b5 243e
00000140: 31b7 ff3d 542b 40bd 72f3 95bc 3deb 83be
00000150: 9ad8 52be a6fe 433d 939a e4bd 7349 413f
00000160: 5173 d0be 65ef 16be 717e 15bf 33cf a4bd
00000170: 2dc7 e23d 9128 85be aff4 0ebe 8725 37be
00000180: 3d03 963b 915d 443d d354 773d 39cc ec3d
00000190: 350a ddbe 6c86 eabd 9cb6 a0bd 8f6b dcbd
000001a0: 4481 e6be dc32 023f 1b06 21be 443d 2d3e
000001b0: 2b2b dd3d 1333 fd3d b643 7cbc dae1 7ebe
000001c0: 2f35 b5be 222c 683e 4587 b13e 8a0e c6be
000001d0: 6e13 193e 3dce 183e 802b 823e 6f1c 29be
000001e0: c2ce 063f 8f8a 07be fd7f 863c b238 1e3d
000001f0: 2f4a aa3d 335b 003f 4845 dbbc 3b74 fcba
00000200: 756c a03e ee00 4fbe de7b b93e f9f5 f63e
00000210: 8ab3 b03d 43e2 8abe 7879 723d bfc3 98be
00000220: af7f a43d d379 0abe 41d5 273f 885c 5d3e
00000230: 7bac e73e 8670 5e3d d6ce 0ebe c275 b73e
00000240: 2bd0 8e3d 4c10 843d 987a 76be 0bf3 6b3e
00000250: a113 f03d b0a5 eebe 9fe7 ac3e 5b43 003d
00000260: 11d8 8b3e 6ceb 463e 2858 70be 8a3b 5dbe
00000270: f3de 28be c4d2 01be 895f a43e 6af6 903d
00000280: 2485 c03e f573 7d3e 6720 a63e a6cb ef3e
00000290: 9f3f 0dbe 212e 87be 0de5 a3bd 8419 aa3e
000002a0: 4af8 8cbe 21ed 8ebc 4791 8e3e 5eb6 c7bd
000002b0: 07f1 3cbc bc8f 6ebe a6dd 5a3e 9322 c63e
000002c0: 0acd 16bc a2f0 e93c 044d 613d 9f56 193e
000002d0: a961 3a3e e5f0 093d c180 33bd 51a5 8a3d
000002e0: a0b3 993e 41ce 2bbd 7cc3 953e c34b b5be
000002f0: 0ff8 143d c6e4 853e 548d 5abe cf33 ed3e
00000300: f1cb e1bd ea05 6bbd c81b 583c 9a9f 93be
00000310: c4f7 46be 9c5b 3a3e e846 91be 4187 983e
00000320: f224 4dbe 929f 933e b4d8 32bc 2a2a 5f3e
00000330: 2b3d c23e 821e a43e fef8 3ebe 065a 44be
00000340: 461a e33e d2d6 aebd 6b1f cc3d 2df3 92be
00000350: 31d1 483e b122 823d 0f4b 6d3d 8bc6 0fbe
00000360: 4dff 363d d1f0 3cbc 13e1 e6bd 5027 5f3e
00000370: 3bd5 283e 78ee 443e a6bf c43e 7239 aebd
00000380: a41b e1bd 0b32 943e 9e85 d53d 5f0d 4f3e
00000390: 2a55 51bd ce48 f13e f88f 8b3d 413f bbbe
000003a0: 2a83 2a3d 32c6 87be c006 a53d 20b4 813e
000003b0: 55af 373e a08e 233e 0b8b b0bd 3494 23be
000003c0: 8c24 563e c9d5 843e fbb7 8fbe 9e0a bd3d
000003d0: 83ad 05bd 49e3 ca3e 947d 053e 3c33 3a3e
000003e0: 2796 81be 06d9 773e be44 383e bfd8 303d
000003f0: 40d5 f3bc c7fc 433e f9dc 8e3d 8340 813e
0.011010694 -0.11150922 0.05277961 0.108723916 0.06525571 -0.07227813 -0.0009428569 -0.5826646
-0.055364687 -0.16733849 -0.13795988 0.112389915 -0.28038517 -0.13371794 -0.3587817 -0.31799588
-0.036766745 0.283319 -0.32016012 0.34077948 0.014497555 -0.52216244 -0.18566987 0.053609792
-0.123578645 0.06489901 -0.07377773 -0.043183677 0.3401539 -0.927867 0.09598415 -0.0037211434
0.26293907 -0.008680735 0.21724993 0.840679 -0.12136434 -0.24894515 -0.3169746 0.04390527
-0.13857089 -0.043502845 -0.021688096 0.028546236 0.026223337 0.45224145 0.35387754 0.049383584
-0.14623812 0.01224156 0.19735874 -0.054513752 0.7103272 0.3895132 0.23653267 0.26968113
0.16807114 0.5423277 -0.092830196 0.25474298 0.58509946 0.14683568 1.0500455 0.22254789
-0.8565764 -0.62724304 0.20470412 -0.7276675 -0.13788338 -0.14193036 0.42512268 -0.45702195
0.5489953 -0.23231956 0.06570022 -0.3086922 -0.053665765 0.15128335 -0.3136668 0.16084898
0.12486113 -0.04691632 -0.01830456 -0.2576541 -0.2059044 0.047850274 -0.11162295 0.755027
-0.4071298 -0.1473976 -0.5839606 -0.080473326 0.11073146 -0.26007512 -0.13960527 -0.1788541
0.0045780228 0.047940794 0.06038363 0.1156239 -0.4317185 -0.1145142 -0.0784733 -0.10762703
-0.45020497 0.50858855 -0.15724985 0.16917902 0.10799249 0.12363257 -0.015397003 -0.24890843
-0.35392138 0.22673085 0.34673515 -0.38682967 0.14948818 0.14922424 0.25423813 -0.16514753
0.5265924 -0.1323645 0.016418451 0.038628288 0.08314931 0.5013916 -0.026766434 -0.0019260714
0.31332746 -0.20215198 0.36227316 0.48234537 0.08627994 -0.2712575 0.059197873 -0.29836842
0.08032166 -0.13523035 0.65559775 0.21617329 0.4524878 0.05430653 -0.13946089 0.3583203
0.06973299 0.06448421 -0.24070203 0.23041932 0.11722494 -0.46610785 0.33770463 0.031314235
0.27313283 0.19425744 -0.23471129 -0.21604744 -0.16491298 -0.12678057 0.32104138 0.0707825
0.37601578 0.24751265 0.32446596 0.4683506 -0.13793801 -0.2640238 -0.08002672 0.33222592
-0.2753318 -0.017447056 0.27845213 -0.09751581 -0.011532075 -0.23297018 0.21373615 0.38698253
-0.009204159 0.028557125 0.05500509 0.1497445 0.18201317 0.033677 -0.04382396 0.06769813
0.30019855 -0.041944746 0.29250705 -0.35409364 0.03636938 0.26151103 -0.21342975 0.4632859
-0.11025227 -0.057378687 0.013190217 -0.28832704 -0.19430453 0.18199009 -0.2837441 0.2979069
-0.20033625 0.2883268 -0.010915924 0.21793428 0.37937292 0.32054526 -0.1864967 -0.19174966
0.44355983 -0.085370675 0.0996693 -0.28701153 0.1961105 0.06354273 0.05793291 -0.14040582
0.044677068 -0.0115320245 -0.11273398 0.2179234 0.16487591 0.19231594 0.38427466 -0.085070506
-0.109916 0.2894443 0.10425876 0.20219944 -0.05110661 0.47125858 0.06814569 -0.36571696
0.041628994 -0.265184 0.08057928 0.25332737 0.17937978 0.15972376 -0.0862027 -0.15974504
0.20912379 0.25944355 -0.28070053 0.09230541 -0.032636177 0.3962653 0.13036186 0.18183607
-0.2530987 0.24203882 0.17994973 0.043175455 -0.029764771 0.19139396 0.06975741 0.2524453

encoder.linear2.bias f4 [128]
00000000: 617e 47bd 9080 bc3d 2455 91be f74a 973e
00000010: 0d25 99bd cb94 eebd fbef 2d3d fe6b a83a
00000020: 0dd1 1c3d 0127 653e 8012 62be 5a93 983d
00000030: 895d 693d 3911 9d3d 66fa 3ebb 52b8 3cbe
00000040: 89ed fe3e b9d9 0e3e e2bf 283d b81b e4bd
00000050: f380 043e 51f4 5abe 6939 ac39 0d7d 18be
00000060: 6ec0 edbd 4b14 d43d d968 563e fba5 433e
00000070: 2f7e 2b3d 418e 4c3d abfd 043e f45b 943d
00000080: f0d8 8e3e 1439 a13c e480 de3b 0325 8c3e
00000090: 1e41 95be bd5f 4a3e ef87 093f 3cf2 923e
000000a0: 68dd 123d 8a21 233e 20de 603e eccd 9abe
000000b0: 842d 333d e0b8 4a3e cbc1 d33e 6434 013e
000000c0: 0972 b13e aeb5 3b3e bcc5 c13e 306c f43e
000000d0: df9e 5a3e f838 f53d cb85 5fbe 8f4f 4b3e
000000e0: 2225 cc3e df62 b43d f3d6 cebe 849f 303e
000000f0: 9362 38be efb6 ee3d 9d1c 0f3e c049 953d
00000100: cf21 dfbe 1505 d1bd 2ed8 623e 23ec 9abd
00000110: b516 823e 4450 1fbd 2384 3d3e e6fe 803b
00000120: d3a3 cebc 209f 1f3e 3723 3f3e dfa2 afbd
00000130: 9144 6a3d d1d0 4f3e eb23 44be a1d9 8b3e
00000140: 506e 12bd 00c4 4f3e bcbe e93d a24e 2cbe
00000150: dbf0 3c3e b29a 3f3d dff2 033f 026a a53e
00000160: ba94 d23e 607f 07be 9e75 363c 320e dc3e
00000170: de9d f63e 8068 6c3e 8ef8 acbd a175 803e
00000180: 329b 03be 919e 913e 5a0c a83e f3b4 14be
00000190: 3e14 dd3e ffa2 033e 79c6 853e 1e7e a6bc
000001a0: b290 97bb 3fbe 5abe 7def cf3d 8cd5 35bd
000001b0: dd15 a0be 5f12 69be e381 5c3e f6ea 8bbe
000001c0: 7681 29be bc90 0f3d d598 4cbd b04f 173e
000001d0: b718 383d d9b7 243e 5ab7 9e3c 4417 9cbe
000001e0: b8fa 0abe be3b 963e 194f 833d c95e 433e
000001f0: b761 6d3e 9503 213e b338 953e 595a 5dbe
-0.04870451 0.09204209 -0.2838527 0.2954938 -0.0747777 -0.11649474 0.04246519 0.0012849567
0.038285304 0.2237816 -0.2207737 0.0744998 0.056973968 0.076693006 -0.0029140948 -0.18429688
0.497906 0.13950242 0.04119862 -0.111380994 0.12939815 -0.21382262 0.0003284917 -0.14891453
-0.11608969 0.10355433 0.20938434 0.19106285 0.041868385 0.04994035 0.12987392 0.07244101
0.27899885 0.019680537 0.0067902673 0.27371988 -0.29151243 0.19763084 0.53723043 0.28700435
0.03585568 0.15930763 0.21959734 -0.3023523 0.04374458 0.19797087 0.4135879 0.12617642
0.34657314 0.18331024 0.37846172 0.4773879 0.21349667 0.119737566 -0.21828382 0.19854568
0.3987208 0.08807921 -0.40398368 0.1724835 -0.18006353 0.116559856 0.13975759 0.07289457
-0.4358048 -0.102060474 0.22152779 -0.07564571 0.2540795 -0.038894907 0.18507437 0.0039366363
-0.025224602 0.15588045 0.18665777 -0.08575987 0.057194296 0.20294501 -0.19154327 0.27314475
-0.035749733 0.20289612 0.11413333 -0.16826871 0.18451254 0.04677839 0.51542467 0.3230744
0.41129094 -0.13232183 0.011136441 0.4297958 0.48167318 0.23086739 -0.084458455 0.25089744
-0.12852171 0.2844129 0.32821923 -0.14522152 0.43179506 0.12855147 0.26127985 -0.02032381
-0.0046254033 -0.21361636 0.10153101 -0.044393107 -0.3126668 -0.22760914 0.21533923 -0.27327698
-0.16553292 0.03505014 -0.04995044 0.14776492 0.044945445 0.16085757 0.019374538 -0.304865
-0.13572204 0.29342455 0.06411571 0.19079126 0.23181807 0.15724023 0.2914482 -0.21616496
