ckpt/student_w_KD_best.pth (torch, 233446 bytes, 29 tensors)

encoder_x1.weight f4 [30, 128]
000000 84 a1 ad be c8 f7 5c bf a8 39 cb 3e e8 36 25 bf
       -0.3391229 -0.86315584 0.39692426 -0.64536905
000010 5e ed 82 3e 40 97 3c bf 13 b8 a0 be b6 83 31 3d
       0.25571722 -0.7366829 -0.31390437 0.0433385
000020 ad 83 81 bc f6 60 cb 3d d9 74 a3 3e 62 75 30 3f
       -0.015809858 0.09930603 0.31925085 0.6892911
000030 43 05 0f be 24 2e 8a be 8a 8d b4 bd d5 c6 ea 3e
       -0.13966851 -0.26988328 -0.08816059 0.45854822
000040 78 88 41 3e 3a a6 77 bf 53 a7 09 3e 0d d0 a5 3d
       0.18899715 -0.96738017 0.13442735 0.08096323
000050 1e 4e 0d 3f 43 ee 88 3f cc 00 7d 3e df a4 2a 3f
       0.5519732 1.0697712 0.24707335 0.66657823
000060 ef 34 ad 3c a7 cb 11 bf 54 b6 6c 3f c3 5d 01 bf
       0.021143405 -0.56951374 0.9246571 -0.50533694
000070 88 90 08 3f 8a af 16 3f ff 22 d8 be 58 ad 4f 3f
       0.5334554 0.588616 -0.422142 0.81123877
000080 d4 32 49 bd 6a c1 0e 3f 3a d8 59 3f b8 84 03 bf
       -0.04912074 0.55763876 0.8509556 -0.5137439
000090 0e 15 ce bc 62 91 af be f0 e6 0c be ad 8a f1 3c
       -0.025156524 -0.34290606 -0.1375997 0.029485071
0000a0 94 39 3d 3e b9 ec dc 3d 37 03 22 be e6 dc 91 3e
       0.18478996 0.10787339 -0.15821539 0.28488845
0000b0 2d bd ae 3e 2f 27 46 be da e9 b0 be cf 9e 6d bd
       0.34128705 -0.19350885 -0.34553415 -0.05801278
0000c0 41 50 94 3d 09 06 ae 3e 5f 12 f5 bd 55 39 05 bf
       0.0724187 0.3398898 -0.11966395 -0.52040607
0000d0 36 d0 c8 bc 1d 7d 1d be 93 8e 17 bf 76 49 61 3e
       -0.024513345 -0.15379758 -0.59201926 0.2200068
0000e0 e4 f4 d9 be 6b 91 84 bd 5e 0f 21 bf 28 3e be 3e
       -0.4256965 -0.06473049 -0.62914073 0.37156796
0000f0 5c df e4 3d 02 3a c4 3e 8c 5c 84 bf 63 6f 04 bf
       0.11175415 0.38325506 -1.0340743 -0.5173246
000100 bf 70 b7 3d ea 00 4f bf d3 3f 8c 3e 0f 1f 7b bf
       0.089570515 -0.8086077 0.27392444 -0.98094267
000110 b4 a7 cb 3e 0d a0 2f 3f f0 1b 37 be 98 12 f4 3e
       0.39776385 0.68603593 -0.17881751 0.47670436
000120 40 d5 84 be cf dd 59 3e e8 d1 94 be 04 d7 60 3e
       -0.25943947 0.2127602 -0.29066396 0.21957022
000130 52 f8 ab 3d ab 7f 6e 3f f2 c1 14 3d 1c b0 d2 3e
       0.08396973 0.93163556 0.036317773 0.41149986
000140 3f 10 52 bd 6a 59 1d be ff 14 8d be 15 f2 22 3f
       -0.051285025 -0.1536614 -0.2755508 0.6365064
000150 ce ea 37 be 2f 02 36 3e da b8 76 3e 91 e8 87 be
       -0.17960665 0.1777427 0.24093953 -0.26544622
000160 14 e8 21 bf 77 d5 f2 3d 5d 31 2a 3d 8a 77 ef bd
       -0.6324475 0.118571214 0.041550983 -0.11692722
000170 07 91 0e bf 6d 7d 00 3e 74 83 0d bf 09 e5 3c 3d
       -0.55690044 0.12547846 -0.55278707 0.046116862
000180 d6 5f c7 3e 46 d7 1e 3e 81 bd bf 3f 4f d1 af be
       0.38940305 0.15511808 1.4979707 -0.34339377
000190 ca db da be 6f d5 70 3e e6 1c a5 3d 8a e3 50 3d
       -0.4274581 0.23518918 0.080621526 0.05099825
0001a0 2e 29 10 3f aa e6 3a bf 90 ca 56 bf 33 11 aa 3f
       0.56312835 -0.73008215 -0.83902836 1.3286499
0001b0 b3 ed 08 3e a2 5b a8 bd 2f e8 e2 be 83 9b 5b be
       0.13371925 -0.082206026 -0.44317767 -0.21446042
0001c0 1d d2 a3 be 1a e8 b1 be fc 70 f1 3e 3a f0 6b be
       -0.3199624 -0.34747392 0.47156513 -0.23040858
0001d0 38 b6 fb 3f 19 9f b3 be c8 db 87 be f3 b1 33 3f
       1.9664984 -0.3508232 -0.26534867 0.70193404
0001e0 76 ec 61 3f bc 50 79 bd 03 f9 dd 3e 55 8a 6f 3e
       0.88251436 -0.06086801 0.43354043 0.23392613
0001f0 b8 2f ca 3e 87 f2 ba bb c2 6a c6 be e6 72 42 3f
       0.39489532 -0.005705181 -0.38753325 0.7595657
000200 b4 60 d0 39 65 b8 d5 be 88 2e df 3e 01 c6 d6 be
       0.000397449 -0.41742244 0.43590188 -0.4194794
000210 bc 6b d0 3e f0 9c 34 3e bb 1d 1d be 25 86 8c be
       0.40707195 0.17637992 -0.15343373 -0.27446094
000220 2e a9 12 be f2 38 1b be c4 ca cf 3e 7e 5e ae 3e
       -0.1432235 -0.15158442 0.40584385 0.34056467
000230 50 68 99 be af 43 86 3e 5b f1 e8 3d 1c 56 a5 3e
       -0.29962397 0.26223513 0.1137416 0.3229226
000240 7d bc 4e bd ee 7c de be 32 f2 ee 3c 9e 0c 2e 3e
       -0.050472725 -0.4345469 0.029168222 0.16997
000250 56 ad ca 3e 2d 43 76 3e ff b2 c3 3e 5c 69 f7 3e
       0.3958537 0.24049063 0.382225 0.4832257
000260 32 6e c9 3e 4c 6b 8c be fb e4 04 3f a4 39 77 bd
       0.39341885 -0.2742561 0.51911896 -0.060357705
000270 65 69 f1 3e 88 a9 f2 3e 22 fa b5 be 18 8d ab 3e
       0.47150722 0.47394967 -0.355424 0.33506083
000280 59 1b 1e 3f 8f 16 fe 3d 0e 61 49 3c 2d df 7c be
       0.6176048 0.124066465 0.012291206 -0.2469451
000290 9e 91 88 3e 61 68 90 3e 30 00 fb bd d0 6a c9 3e
       0.26673597 0.28204635 -0.12255895 0.39339304
0002a0 8b 5a f1 bb 64 5d 54 3e c7 d6 77 be 54 b2 e1 3c
       -0.00736553 0.2073875 -0.24203025 0.027550854
0002b0 d1 78 db 3d f2 d5 52 be 97 71 63 3e 8c 0f 2d be
       0.10716403 -0.20589426 0.222113 -0.16900462
0002c0 4b 99 b3 bd 6c 2d af be 24 13 2f be 11 c9 e9 be
       -0.08769473 -0.34214342 -0.17097145 -0.45661214
0002d0 29 57 72 3f a8 21 90 be 86 8e 8c bd 0e 61 af 3e
       0.94664246 -0.28150678 -0.06863122 0.34253734
0002e0 14 e3 82 be bf a9 57 be 6e 61 d7 be 93 92 99 3e
       -0.25563872 -0.21060847 -0.4206652 0.2999464
0002f0 95 44 96 3e 30 6b bd be 80 d2 c7 be 63 00 96 be
       0.293492 -0.3699584 -0.39027786 -0.2929717
000300 db 35 08 3d fd 3f 9e bd d7 69 00 3f dd 5b d4 be
       0.033254486 -0.077270485 0.501615 -0.41476336
000310 bf 2f e1 bd d0 46 97 3d e7 21 aa be 46 9e e1 3e
       -0.10995435 0.07386553 -0.3322899 0.44066066
000320 77 59 b7 3d 53 44 0f bf 49 df 00 3e c8 36 6b bb
       0.08952611 -0.5596363 0.12585177 -0.0035890806
000330 9a 6c 9f be b8 9a 29 be 89 7c 79 3f 94 49 86 be
       -0.31137544 -0.16562927 0.9745565 -0.2622801
000340 1a c7 81 3f f4 2a 9c be 85 57 77 3e 8d 8b 1d 3f
       1.0138886 -0.3050152 0.2415448 0.6154106
000350 a9 c1 98 3e 01 b6 68 3e 08 1e 20 bd 30 46 90 be
       0.2983525 0.22725679 -0.03909114 -0.2817855
000360 59 24 c5 be dd 40 ad 3e c2 e4 28 3e ef b1 23 3e
       -0.38504294 0.3383855 0.16493514 0.15985845
000370 0f 84 f6 be e0 d4 b3 3e ce 3b c2 be 06 37 7a 3e
       -0.48147628 0.35123348 -0.37936252 0.24435052
000380 85 8d d4 3e 6a 2c ca 3e 94 28 89 3e 6d d6 44 be
       0.4151422 0.3948701 0.2678877 -0.19222422
000390 58 e1 c9 be c8 60 89 be 41 b1 19 bf 35 0b 99 bd
       -0.39429736 -0.2683165 -0.60036093 -0.07472841
0003a0 ba ca 88 3f 84 fb 8c be 72 2b 61 3e fe 8d d5 bd
       1.0686867 -0.2753564 0.2198923 -0.104274735
0003b0 72 1e b4 3e f1 87 97 be d4 0e 65 be 4d 0c 8c bd
       0.35179478 -0.29595903 -0.22368938 -0.06838284
0003c0 64 d8 01 bf 69 10 64 bd 30 ac 89 3e c6 5e b5 be
       -0.5072081 -0.055679712 0.2688918 -0.3542387
0003d0 2b 84 94 3e cf 07 3e bf 70 bc 97 3e 39 8f d5 3e
       0.29007086 -0.74230665 0.29635954 0.41710833
0003e0 52 a2 ce 3d f1 8a 18 3e 2a c4 f2 3d 35 f1 c2 3e
       0.10089554 0.14896752 0.118538216 0.3807465
0003f0 47 a2 ea be 30 9f 80 bd 12 7c 2e bd e6 db bf 3e
       -0.45826933 -0.062803626 -0.04259879 0.37472457

encoder_x2.weight f4 [20, 128]
000000 00 e2 46 3e 60 8b 2f 3f 90 d3 9c be c2 a0 79 3e
       0.1942215 0.68572044 -0.3063016 0.2437773
000010 ce 52 06 3e a2 68 ab bc 4a cb 1f 3e e9 83 1b 3e
       0.13117525 -0.020923916 0.15604892 0.15187038
000020 01 26 17 3e 8f 88 83 3e 3e d3 bb bd 25 d2 86 be
       0.14760591 0.25690123 -0.091711506 -0.26332203
000030 55 e0 6c 3e 4a 55 8e be fe 65 cd 3d 64 6f 60 be
       0.23132451 -0.27799445 0.10029219 -0.21917492
000040 25 8b 4f 3c 0a e7 ba 3e f7 dc dc bd f8 c0 7f be
       0.012667452 0.36504394 -0.10784333 -0.24975955
000050 48 5e b8 be 88 fb 3d be 89 d9 29 be f8 f7 c5 3d
       -0.3600943 -0.18552983 -0.1658689 0.09666437
000060 7b 01 b5 be ec 0c 9d 3e 95 ac 34 bd 3b e8 27 3e
       -0.35352692 0.3067392 -0.0441099 0.16397183
000070 21 9d 3a bd bb 4d 30 bf bd 4f cc 3e 5e ea ca be
       -0.045560006 -0.6886861 0.39904585 -0.39631933
000080 6c 9b 3e be e8 f6 83 3d 89 2a 69 be 89 3e de 3e
       -0.18613976 0.06443578 -0.22770132 0.43407086
000090 0f d4 bd bd b3 3c d2 bd b8 1e 3b be d8 ac 67 be
       -0.092689626 -0.10265484 -0.18273437 -0.22624528
0000a0 53 b1 2a 3e 5a 7c 9e b9 63 43 0f 3e 70 3d 69 3d
       0.16669206 -0.00030228758 0.1399055 0.056943357
0000b0 2c e4 ab bc 77 03 12 3e 22 f1 4b 3d 8f 49 47 3d
       -0.020982824 0.14259134 0.04979051 0.048654135
0000c0 52 97 b2 3e 93 52 7b bd 60 fe 6c 3e 5c 2b c0 3d
       0.34881073 -0.061358046 0.23143911 0.0938327
0000d0 19 6a 17 be 64 a2 9d 3d c0 a4 73 3e 95 a1 27 be
       -0.14786567 0.07696989 0.23793316 -0.16370232
0000e0 ab 62 d8 3e a4 d8 d7 bc 54 5f 54 3e 32 2d 4b be
       0.42262778 -0.02634842 0.2073949 -0.1984146
0000f0 bf 91 c2 bd 30 5f 4c 3e 88 43 35 3f c0 82 d3 bd
       -0.09500455 0.19958186 0.7080617 -0.10327673
000100 e0 55 14 3c 12 aa 7b 3e ac 81 0d be c6 14 89 3e
       0.009053677 0.24576595 -0.13818997 0.2677366
000110 fc 71 12 be 7a b2 af bd 16 51 25 3e f5 29 42 be
       -0.14301294 -0.085789636 0.16144213 -0.18961318
000120 43 5f b1 be 5e 27 0d 3d 01 86 23 3e 45 be a4 be
       -0.3464299 0.03446137 0.15969087 -0.32176414
000130 30 51 64 bc 5c b2 d4 3d bd 2a 99 3c 40 28 2a 3e
       -0.013935372 0.10385582 0.018697137 0.16616917
000140 77 0e 85 3d b4 12 14 3e 3c 96 88 3d 25 0d d7 be
       0.064968996 0.1446026 0.0666928 -0.42002216
000150 6f 13 55 bd 07 08 35 be 75 12 e2 3d f3 6a 80 3d
       -0.052020486 -0.17678843 0.11038677 0.06270399
000160 89 b4 a5 3d 73 af a9 bd 9c 06 06 be 44 fe 86 bd
       0.08091075 -0.082854174 -0.13088459 -0.06591466
000170 21 66 63 3e ac d9 fa 3d a4 bd 4d 3e 19 62 c3 bd
       0.22206928 0.12248549 0.20091873 -0.09540195
000180 82 79 73 bd 60 8b 00 be 4a 7a ce bc 67 fb fd 3d
       -0.05944205 -0.12553167 -0.025204796 0.12401467
000190 d1 c2 b8 3e 53 36 86 bd f2 d5 9a 3d 21 0b 83 bd
       0.36086133 -0.0655333 0.07560338 -0.06398607
0001a0 b3 3d 11 bd 41 bf 21 3e d9 4f 83 bb 03 ce a1 bd
       -0.03545923 0.15795614 -0.0040073213 -0.07900622
0001b0 67 c3 80 3d 63 87 9b 3d c9 9c 28 3e 1f 09 3d be
       0.0628727 0.07594182 0.16466059 -0.1846051
0001c0 fe ec 29 3e 10 c1 04 3f 72 bc a3 be 43 d7 9c 3a
       0.16594312 0.5185709 -0.3197971 0.0011966008
0001d0 97 95 01 3c bf e9 ea 3e 3c 8f c3 bd 10 d5 1e be
       0.0079092 0.4588146 -0.09548804 -0.15510964
0001e0 9f 31 00 be ee 41 65 be 31 e1 9d 3b 17 dc 46 3e
       -0.12518929 -0.22388431 0.0048181047 0.19419895
0001f0 cf f7 dc 3d 8e 46 a0 bd 62 ec cd 3d 03 f1 4a 3e
       0.10789453 -0.07825957 0.10054852 0.19818501
000200 e3 53 02 be e0 3b 9e 3e e5 be 29 be d2 59 80 3e
       -0.12727313 0.30905056 -0.16576727 0.25068527
000210 83 db 0f ba d6 54 62 bd b0 8c 20 3e bc 08 5b 3d
       -0.0005487727 -0.055256687 0.15678668 0.053475127
000220 44 4e b4 ba cb b4 b0 bc f0 83 43 be 63 3c e7 bd
       -0.0013756235 -0.021570584 -0.19093299 -0.11290815
000230 ab 9a 9e 3d ad eb 4f 3e 21 77 65 3d 9c d5 ac bd
       0.07744344 0.20304747 0.056021813 -0.0843918
000240 0a d4 57 be 1c fe 4f 3d 24 56 67 3e a0 29 24 3e
       -0.2107698 0.050779447 0.22591454 0.16031504
000250 28 7c e3 bd 39 c0 a1 3c 73 b4 69 be 05 00 79 3a
       -0.11107665 0.01974498 -0.22822742 0.0009498599
000260 84 ce 23 be cd e7 ba 3d b8 5c 1e 3e 62 28 a2 3e
       -0.15996748 0.09126244 0.15465057 0.31671435
000270 04 0b b9 bc 8b fe 87 bd 0c 23 e0 3d 6a 7a 19 3d
       -0.02258826 -0.06640347 0.10944185 0.03747026
000280 15 35 5b 3e 4c 2f f1 3d fb cb 1a be 51 64 45 3d
       0.21406968 0.11776599 -0.15116875 0.048191372
000290 d0 44 87 bd ad d5 cc bd cd 7e 72 3e 10 62 ae 3d
       -0.06604922 -0.10001693 0.23681183 0.08514798
0002a0 da c1 bf 3d f9 23 47 be f3 75 a1 3d b1 3f b1 be
       0.09363146 -0.19447316 0.07883825 -0.34618905
0002b0 9f 26 06 bb 45 36 c2 3e 29 81 cd bd df 61 81 3e
       -0.0020469797 0.3793203 -0.10034401 0.25269982
0002c0 a0 71 71 be b1 60 99 bd 0f fc 16 3e 09 a6 e0 3e
       -0.23578501 -0.074891455 0.1474459 0.43876675
0002d0 24 ad ee be 5e db 7d 3e ed 12 e9 bb 94 0d 2b be
       -0.4661647 0.24790713 -0.007112852 -0.16704398
0002e0 ec 86 b4 3e df 4d ad 3e de ca a7 3e 6e 1d ae bd
       0.35259187 0.33848473 0.32771963 -0.08501707
0002f0 4c f7 81 bc e1 95 3d be 0a ec 7f 3e 6d 98 22 3e
       -0.01586499 -0.18514206 0.24992386 0.15878458
000300 76 47 18 3b f1 32 a2 3d 40 88 d2 3d 56 2b d3 3d
       0.0023235953 0.079198726 0.10279894 0.10311
000310 00 86 10 bd 6d bc 66 be eb aa 63 3e f6 22 cb be
       -0.035284042 -0.22532816 0.22233169 -0.3967511
000320 74 e6 de ba 87 79 e6 3d bf d0 a1 bd 24 a8 b1 3d
       -0.0017005936 0.11253648 -0.07901143 0.086746484
000330 d4 e3 86 3e ae f2 d5 3d cf ea 6b 3d 43 ec 87 bc
       0.26345694 0.10446678 0.057596978 -0.01659215
000340 18 26 24 3e c5 00 d3 3d 46 95 63 be 90 01 80 be
       0.16030157 0.10302881 -0.22224912 -0.25001192
000350 31 b3 86 be a9 5d 0f be bf c3 3e 3e 83 e1 5b 3d
       -0.26308587 -0.14000572 0.18629359 0.05368186
000360 65 73 ce 3e 04 07 3e be 99 6e 82 be df 79 97 3e
       0.40322414 -0.18557364 -0.25475004 0.29585168
000370 4e f6 20 3e f8 9b aa be 10 42 8f 3e d5 53 e8 bc
       0.15718958 -0.3332212 0.2798009 -0.028360287
000380 da a4 01 3d 30 6c 8b be 4c cd 52 bd 4d 15 0b bd
       0.031651355 -0.27230978 -0.051465318 -0.03395586
000390 7a a6 61 3e f0 95 4d 3d 5d bd 54 3e 77 09 7d bd
       0.22036162 0.05019182 0.20775361 -0.061776605
0003a0 bf 05 34 be f1 50 23 3e 09 c4 35 3e 60 da 53 3c
       -0.17580317 0.15948845 0.17750563 0.012930483
0003b0 16 f6 99 be f6 b3 a6 3e be b1 eb 3b 98 ec ad bd
       -0.3007056 0.32559174 0.0071928194 -0.08492392
0003c0 8d c9 6f 3e b7 d8 89 bc 77 7b 0e 3e fb 91 cf 3e
       0.2341673 -0.01682697 0.13914286 0.40541062
0003d0 08 20 f5 be 40 57 77 3e 29 c7 96 bc c1 95 61 be
       -0.47876 0.24154377 -0.018405514 -0.22029783
0003e0 92 36 ac be 83 95 cb 3d 87 0e ee bc 1c b9 12 3e
       -0.33635384 0.099406265 -0.029059662 0.14328426
0003f0 95 f6 52 bc 2b 2a 12 be e0 06 c8 3e 53 fd c9 bd
       -0.012876173 -0.14273898 0.39067745 -0.09862771

encoder_x3.weight f4 [7, 128]
000000 4e 48 0f 3f a3 4b 03 be 99 72 28 be b9 22 75 3d
       0.55969703 -0.12821822 -0.16449966 0.059847567
000010 d1 63 53 bd 98 a1 bb be 51 50 32 bd 64 04 19 be
       -0.051608864 -0.36646724 -0.043533627 -0.14943081
000020 13 45 8b be 76 a9 a1 3d 5e b9 a6 3d 98 a3 7a bd
       -0.27201137 0.0789365 0.08140825 -0.06119117
000030 49 ca ad 3e d1 bc 2d 3c ae 58 a0 be 23 a7 59 be
       0.33943394 0.010604099 -0.31317657 -0.21255164
000040 ef f4 1c 3f 41 db 9c 3e 70 5c 7b bd 54 10 ac be
       0.6131124 0.30636027 -0.061367452 -0.33606207
000050 3a 34 37 be 59 e0 9c 3e 94 85 57 3e 3e 8d 8e 3c
       -0.17891017 0.30639914 0.2104705 0.017401334
000060 ff c0 8f 3e 3b 1b 2c bd 48 98 f4 3c 94 53 d8 be
       0.28076932 -0.042018156 0.02985777 -0.42251265
000070 b9 64 46 be cb 36 85 be 4e ef 06 3e ef e1 0a 3e
       -0.1937436 -0.26018366 0.13177225 0.1356275
000080 50 29 85 3d 5c 1b 05 bf 54 94 7e 3e 15 0b e8 3e
       0.0650202 -0.5199487 0.2486127 0.45320955
000090 73 3b 96 be 3f 62 b3 be ba 9f 50 3e 42 b7 5b 3e
       -0.2934223 -0.35035893 0.20373431 0.21456626
0000a0 06 93 c7 3e 63 b0 4f 3e d6 c7 8d be 0b 7d 52 be
       0.38979357 0.2028213 -0.27691525 -0.20555513
0000b0 f7 dc 73 be f5 4f 69 3e 42 b5 e3 3e c7 20 5f bc
       -0.2381476 0.22784407 0.44474226 -0.013618655
0000c0 10 17 f4 bd c9 1d 9a be 16 dd 78 3e a5 07 1a be
       -0.11918461 -0.3010085 0.24303088 -0.15041979
0000d0 9f aa 84 3e 39 00 52 3e 0d 38 af 3d fc 0a f1 3d
       0.25911424 0.20507897 0.08555613 0.11769673
0000e0 9f 2b 57 be 34 b5 fe 3e 3a f1 3d be 3a 4e 9d be
       -0.21012734 0.49747622 -0.18549052 -0.30723745
0000f0 d5 52 86 be cd 48 6a 3e 71 32 bc bc 29 f9 95 3e
       -0.2623507 0.22879334 -0.022973271 0.29291657
000100 f8 09 41 bf 65 23 4f be 99 18 f0 3d a1 9c 29 bd
       -0.75405836 -0.20228346 0.11723442 -0.04140914
000110 55 61 3e 3c 66 b2 37 3e d1 39 d0 be 79 c7 c5 be
       0.011619885 0.17939147 -0.4066911 -0.38628748
000120 ac 6d 82 be 4a 3b 3f 3d da 4f c6 3c 9b 3c 1c 3f
       -0.25474298 0.0466874 0.024207998 0.61029977
000130 78 3d 41 be 48 51 03 3f 4b 1c f8 bd 1d 04 ae 3d
       -0.18871105 0.512959 -0.121147715 0.08496878
000140 85 04 a3 3e 17 3f 9b 3e 51 41 69 be b2 62 e7 bd
       0.31839386 0.3032157 -0.22778822 -0.112981215
000150 1a 03 1b 3e 15 82 af 3e 7b 92 2b 3e b5 46 2a bd
       0.15137902 0.34278932 0.16755097 -0.041571338
000160 dd fe c2 3e b7 73 8f be ae 37 e5 3d ed 8f 65 be
       0.3808507 -0.2801797 0.11192261 -0.22418185
000170 73 4f c9 3e 6c 0a 8d 3e d0 60 55 be e1 6d 85 3e
       0.39318427 0.27547014 -0.20837712 0.26060393
000180 9a 49 81 3e 23 0f 84 3d 07 aa a6 3e bc 27 c3 3e
       0.25251466 0.064481996 0.32551596 0.38116252
000190 1a 41 93 bd c5 87 e3 bc 2e 65 e3 3e 39 53 35 be
       -0.071901515 -0.0277747 0.4441313 -0.17707528
0001a0 de 26 40 3e db 58 a5 3e 38 96 8d 3e 2e de 61 3f
       0.18764827 0.32294354 0.2765367 0.88229644
0001b0 1e 4d c6 bd 10 cb 6d bd b6 4d 84 3e 20 ab 8d 3c
       -0.09682678 -0.058054984 0.2584054 0.017293513
0001c0 31 d3 f4 3d 10 8a 8a be 11 2d 15 be c1 93 c8 bd
       0.11954344 -0.27058458 -0.14567973 -0.09793807
0001d0 9c 6a dd 3e c0 93 82 be 71 63 88 3d 10 77 a7 3c
       0.432454 -0.2550335 0.06659592 0.020442516
0001e0 12 28 28 3e 4c 31 19 be 5d 82 34 be 1d 1d d1 bd
       0.16421536 -0.14960212 -0.17627855 -0.10210631
0001f0 ff 50 a6 bd 2b cc 1a bf 9f d1 16 3f 04 ea 3f 3d
       -0.081209175 -0.60467786 0.58913606 0.046854034
000200 f8 66 43 be 8f 82 a9 3d 0e 5a 27 be 7c 46 02 3a
       -0.19082248 0.08276855 -0.16342947 0.00049696094
000210 1c 52 a2 3e da fb 73 3e ad a3 6a 3e 02 8a 2c be
       0.3170327 0.23826542 0.22914 -0.16849521
000220 1c 36 b5 3e d9 61 e0 3d ed 89 a9 3e 7e 2a 49 3e
       0.35392845 0.10956163 0.33113042 0.19645116
000230 ad 69 18 bf 57 c2 46 3e de 58 74 bd a7 7f dd 3e
       -0.5953625 0.19410072 -0.059655063 0.43261454
000240 7f b3 13 bc 19 75 1d be 3b 2a fe be 46 be 62 3e
       -0.009014963 -0.153767 -0.49641594 0.22142896
000250 54 75 86 3e e4 7c 12 3e 37 55 17 be 77 90 85 3e
       0.2626139 0.14305454 -0.147786 0.2608678
000260 3f d2 ed bc ac ca 4b 3d 08 6f e2 3e 16 a4 dc 3e
       -0.029030917 0.04975383 0.44225335 0.43093938
000270 d0 01 94 3e b3 c6 92 be 37 f6 10 3d fc e3 86 bd
       0.28907633 -0.2866722 0.03539106 -0.06586453
000280 f4 12 25 bf 35 a0 f8 3d b5 71 84 3e 2f 58 f9 bd
       -0.64482045 0.12139932 0.25868002 -0.12175023
000290 4e f5 33 3e 19 c9 04 3f 8d 77 52 3e 89 10 96 3c
       0.17574045 0.5186935 0.20553418 0.018318431
0002a0 e1 96 36 be 2a 60 2a 3d 2d 5c 32 bd 2b ce a6 be
       -0.17830993 0.041595615 -0.043544937 -0.3257917
0002b0 b4 55 b9 bd 02 31 16 be 5c 73 9b be 99 1c 7e 3e
       -0.0904955 -0.14667132 -0.3036145 0.24815597
0002c0 49 73 95 3e 84 e0 6c be 88 28 05 be 53 0e 4d bd
       0.29189518 -0.23132521 -0.13003743 -0.05006249
0002d0 81 7c da 3c 14 d1 c7 be 5b 57 9e 3d 9c 65 00 3e
       0.026670696 -0.390267 0.077315055 0.12538761
0002e0 57 36 3b 3e cf cd 1a be 30 10 83 3d 98 a6 94 3e
       0.18282448 -0.15117572 0.06399572 0.2903335
0002f0 9f d4 2b 3e 1e 7a da be 1a 3a fd 3e d2 06 46 bd
       0.16780327 -0.42671293 0.4945839 -0.048346348
000300 22 9c af 3e f0 e7 27 be b2 19 78 3d ec 23 f9 be
       0.34298807 -0.16397071 0.06057138 -0.4866022
000310 61 d3 94 3d bc 18 73 bd f2 57 79 3e ac 8c b6 3e
       0.0726688 -0.05934976 0.24349955 0.356542
000320 a4 c0 16 3f 8d 01 34 bd 72 63 e9 bd 70 c5 e7 bd
       0.58887696 -0.04394679 -0.11395921 -0.11316955
000330 3b c0 b2 bd 8b e9 6b 3e 97 37 5d 3e 88 ee 26 bf
       -0.08728071 0.23038308 0.21603237 -0.6520772
000340 fb 0d b3 be 9c 3d 90 be 82 cf a0 3d 3e 2b 9e 3e
       -0.34971604 -0.28172004 0.07852079 0.30892366
000350 ec 84 bf ba c0 9d 17 be e9 36 9b be 02 55 dd bd
       -0.0014611757 -0.1480627 -0.3031533 -0.108072296
000360 74 b9 7b be 12 fa 12 3e 94 53 83 be 45 c5 2b 3e
       -0.24582464 0.14353207 -0.25649703 0.16774471
000370 b6 d7 79 3d 0d c1 0f be ff ea a1 3d 76 2a 3d bd
       0.060996734 -0.14038487 0.0790615 -0.046183072
000380 fe 69 1c 3f 30 55 99 3e b4 9a 82 3e 80 80 69 be
       0.6109923 0.29947805 0.25508654 -0.22802925
000390 9c a0 77 be f5 c6 1b bf 26 ef c8 be 2c 50 c8 bd
       -0.24182361 -0.6085046 -0.39244956 -0.097809166
0003a0 e2 d1 fe 3e 19 d3 4b be 24 37 e5 3e a1 25 67 be
       0.49769503 -0.19904746 0.4476863 -0.22572948
0003b0 a9 59 77 3e c5 d9 92 be a0 71 fd bd 4e 71 51 3e
       0.24155296 -0.2868177 -0.12375188 0.20453379
0003c0 0b ad a4 be 88 a9 ee bd 85 a3 41 3e 40 9b 42 be
       -0.3216327 -0.11653429 0.18910034 -0.19004536
0003d0 a5 c0 13 3e e3 58 ca bc 18 4f 6a 3e f6 1b 4c 3e
       0.14428957 -0.024700588 0.22881734 0.19932541
0003e0 6d a4 87 3e c6 03 5f 3e cf 90 70 bd 5d 27 48 bc
       0.26492634 0.21778783 -0.05873185 -0.012216416
0003f0 c6 fa 59 3d 60 f2 45 3e 30 3b 65 3d 52 36 94 be
       0.05321767 0.1933074 0.05596465 -0.28947693

encoder_x4.weight f4 [13, 128]
000000 e9 b6 e4 3c 73 86 c0 3e be af 83 bd 44 af 93 3e
       0.02791925 0.37602577 -0.064300045 0.28844655
000010 25 86 8f be 6c d6 db 3e 93 14 ee 3d 0f ac c9 be
       -0.28032032 0.42937028 0.11625018 -0.39389083
000020 09 f1 4d 3e d7 41 1b 3e b5 86 48 3e 51 d8 49 bd
       0.20111479 0.15161835 0.19582637 -0.04927856
000030 b5 9b 56 3c 90 01 ff 3c 1e 19 b5 3d 7f 2a f0 3d
       0.013098647 0.031128675 0.08842681 0.117268555
000040 ad a1 35 3c 79 eb 3c 3e 8c 77 c9 3d a6 e2 f0 3d
       0.01108591 0.184492 0.09837255 0.1176198
000050 9f 50 0e 3e e8 cb 9f be 66 43 30 3e 88 29 8a 3d
       0.13897942 -0.31210256 0.1721321 0.06746203
000060 d9 4c e6 3c a1 95 16 3d 41 de 88 3e 09 d4 4b 3e
       0.028112816 0.03676379 0.26732066 0.19905104
000070 40 60 b3 bd fa e5 37 be 4a b4 02 3e 0c 42 06 be
       -0.087585926 -0.17958823 0.12764087 -0.13111132
000080 7b 8a d6 3d f2 2c ba bd 11 59 16 bd 1f 78 c1 3e
       0.10475632 -0.09090604 -0.036706034 0.37786958
000090 97 f0 67 be fc 0e 88 3e 74 5f 90 be 13 41 45 be
       -0.22650371 0.26573932 -0.28197825 -0.19263105
0000a0 3b d5 02 3e 80 18 86 3d 11 83 10 3e b9 34 87 be
       0.12776653 0.06547642 0.14112498 -0.26407412
0000b0 c8 64 91 3d 4e d6 90 be 99 9c 8b be db 76 c1 3c
       0.070993006 -0.28288502 -0.27267912 0.023616245
0000c0 6c 4e 97 3d 84 d6 24 bf 39 77 87 be 74 da fb bd
       0.07388005 -0.64389825 -0.26458147 -0.12297526
0000d0 e5 5a 8c be ca 3e ee be fd 38 55 be bf f2 20 3d
       -0.27413097 -0.4653228 -0.2082252 0.039294
0000e0 cc 8d 63 be 3f d2 1b 3d 20 2d 22 be 03 06 de 3c
       -0.2222206 0.038042303 -0.15837526 0.027102476
0000f0 e1 71 48 bc 72 15 98 bd b5 09 12 3f ae ad 35 be
       -0.012234182 -0.07425965 0.5704606 -0.17742035
000100 c8 a0 27 3e af 2f 85 be 02 f5 73 3d 8f ae 69 3d
       0.16369927 -0.26012942 0.05955983 0.057051238
000110 eb 65 ad bd d5 02 2d be f4 42 2b be f6 b5 92 3c
       -0.08466705 -0.16895612 -0.1672476 0.017909031
000120 b2 10 bd 3e 34 06 b9 bd 63 11 a2 3d 80 e6 58 be
       0.369268 -0.09034386 0.079134725 -0.21181679
000130 b8 20 b3 bd e5 5c a5 3e 7f 9c fb 3c fe c1 0a be
       -0.08746475 0.32297435 0.030714272 -0.13550565
000140 18 2b 3c 3e b3 fb 86 be fd 49 82 3e a6 9c 17 3e
       0.18375814 -0.26363906 0.25447074 0.1480585
000150 23 31 8e 3e 6b 25 c5 be b0 4a 5c be d9 91 80 3d
       0.27771863 -0.3850511 -0.21512866 0.06277818
000160 fe e8 28 be 85 59 aa bc da 91 4a bc 6f 67 9c 3e
       -0.1649513 -0.02079464 -0.012363875 0.30547664
000170 f4 ef 11 bd 5e 22 07 3e e9 e7 3e 3e 34 9f 68 3e
       -0.035629228 0.13196704 0.18643154 0.22716981
000180 ca a7 c1 3e cb 09 a4 bd 4a ce 4d 3e bd 89 81 be
       0.37823325 -0.0800968 0.20098224 -0.25300398
000190 c6 95 3a be c3 5e 73 be 52 83 f3 bd a2 72 05 3e
       -0.18221197 -0.23766617 -0.11890282 0.1303201
0001a0 f4 97 63 3e 4b 50 6a be d0 93 98 3e 61 28 91 3e
       0.22225934 -0.22882192 0.29800272 0.2835112
0001b0 33 51 8e 3e f6 c8 59 be 0a 58 f9 3d f6 39 a5 3d
       0.27796325 -0.21268067 0.12174995 0.08067696
0001c0 ca 92 06 be ae 9a 9d bd 9e 44 8f be 55 64 8e bc
       -0.13141933 -0.076955184 -0.27982038 -0.017381826
0001d0 90 50 03 3f 6a d8 a4 be f9 1c da 3e 5f e5 70 3e
       0.51294804 -0.3219636 0.4260023 0.23524998
0001e0 20 22 95 3e 1d 2a 28 bd a4 15 e4 3e 61 02 3d bc
       0.29127598 -0.041055787 0.4454776 -0.011536212
0001f0 0c 6a 79 be 56 a5 ac 3d e2 e4 ae 3d 89 ad 93 be
       -0.2435686 0.08429973 0.0853975 -0.28843334
000200 1f 38 42 be 76 38 e8 3d 83 e4 68 be ac dd 30 3e
       -0.18966721 0.11338894 -0.2274342 0.17272061
000210 cf 71 31 be 2c 78 11 be 51 15 89 3e 1f e9 74 be
       -0.17328571 -0.14205998 0.26774076 -0.23917054
000220 fe 9e 57 3d b4 1a 24 3e 92 45 2a 3e 4d a1 33 be
       0.05264186 0.16025811 0.16628101 -0.17542
000230 2f 83 70 be 8e c1 95 3e 11 7d 32 be ad e9 71 3e
       -0.23487543 0.29249233 -0.17430522 0.23624296
000240 5e d6 05 3e a4 98 6e 3e 60 32 e8 3d f1 fa b0 be
       0.13070056 0.23300415 0.11337733 -0.34566453
000250 12 9e 12 3e 20 76 4a be ac 66 64 bd 3e 4b 88 3d
       0.14318112 -0.19771624 -0.055761978 0.06654976
000260 ad 35 b0 bc c7 d9 c4 bc 91 83 3e be f8 25 48 3e
       -0.02150997 -0.024029626 -0.18604876 0.19545734
000270 b7 fe 9b 3d 9a db d2 3d 27 46 72 be 63 fc b3 bc
       0.076169424 0.10295792 -0.23659573 -0.021970933
000280 52 a4 49 3d b4 27 70 3d 4d 23 e2 3c 0f 79 94 be
       0.049228974 0.058631614 0.027604723 -0.2899861
000290 b0 99 e4 be bb 81 37 3e f4 54 ad 3c f3 6f 2f 3d
       -0.44648504 0.17920582 0.021158673 0.042831372
0002a0 85 72 24 bd e6 c8 15 3d 94 2d c4 bd 4f 7b a6 be
       -0.040148277 0.036568545 -0.09579006 -0.32515952
0002b0 71 f7 91 be 61 9a 35 3e 50 fc d8 3c 8e f7 cd 3e
       -0.28509095 0.17734672 0.0264875 0.40227932
0002c0 b7 15 03 bf 46 95 85 be a3 74 36 3d 73 ad 4c 3d
       -0.5120501 -0.2609045 0.044544827 0.0499701
0002d0 f8 60 3a be 04 97 97 be f2 99 ab bd 0a b8 43 3e
       -0.18201053 -0.29607403 -0.08378972 0.19113174
0002e0 61 e1 83 3e fd c4 64 3a 7c 14 ac 3e 02 94 6b 3e
       0.25757888 0.00087268633 0.33609378 0.23005679
0002f0 79 2e f8 3e 05 60 ef be 74 5f 78 3e c0 14 4b 3e
       0.48472956 -0.46752945 0.24255162 0.19832134
000300 fc 1f 38 3f 77 a7 a3 3d 95 c8 2b 3e 38 18 0d be
       0.71923804 0.07990926 0.16775735 -0.1377877
000310 28 3c c6 be b6 e6 92 bd f2 4b ba 3d 20 32 bf 3e
       -0.3871777 -0.07172911 0.09096517 0.3734293
000320 a7 7f d3 3e 88 c7 a9 be 74 6f af ba 22 f5 67 bd
       0.41308329 -0.33160043 -0.0013384656 -0.05663026
000330 70 4b 0d 3e c1 b5 44 be 89 b3 6d 3d 38 0f df be
       0.13798308 -0.19209959 0.058032546 -0.43566298
000340 15 50 72 bd 6d ef b6 be 6e ab 0b bd 8b b6 61 3e
       -0.059158403 -0.35729542 -0.034099035 0.22042291
000350 d7 f2 2a 3e d2 9b 3e bd 8f ae 7e bd 97 29 18 bd
       0.16694199 -0.04653532 -0.06217819 -0.03714904
000360 c3 9f 03 3e 3e 6e 15 3e 86 37 af 3d c6 06 b2 3e
       0.12853913 0.14592835 0.08555512 0.34770793
000370 05 79 13 3e 16 91 37 be 3e e7 37 bc 7a ec 3a 3e
       0.14401634 -0.1792644 -0.011224566 0.18254271
000380 e2 09 28 3d 15 dd 9d bd 1b 1a e4 3e 3d 9e 72 be
       0.04102505 -0.07708184 0.44551167 -0.23693176
000390 fd f5 c0 3d 12 05 1b bf 79 55 22 be ea 72 39 3d
       0.094219185 -0.6055461 -0.15852918 0.045275606
0003a0 ca 13 9b 3d 25 4a d0 bd 90 2f d3 3e 96 47 51 3d
       0.07572134 -0.10170392 0.41247225 0.05109366
0003b0 24 80 1d 3e 4c 41 93 be 79 f5 94 3d 70 ec 49 3e
       0.15380913 -0.28760755 0.07273383 0.197191
0003c0 9c a0 dc bd c6 2e 89 3d 60 79 8e 3d b3 9c b1 3b
       -0.10772821 0.066983745 0.06956744 0.0054202913
0003d0 84 7d ce 3e 6c e1 ff be e4 83 de 3d f9 a2 61 bc
       0.40330136 -0.4997667 0.10865 -0.013771766
0003e0 c8 ad e6 3d 32 72 95 3e ab e8 0f 3e e0 10 16 be
       0.11263615 0.29188687 0.140536 -0.14654875
0003f0 f5 e8 27 bc 02 48 d5 bd 55 f4 d4 3d 14 1a 61 be
       -0.010248412 -0.10414125 0.10398165 -0.21982604

encoder_x5.weight f4 [6, 128]
000000 ba a0 1a be 17 6f ee be dc 13 01 3e 5f 08 4d 3d
       -0.15100375 -0.4656913 0.12605232 0.05005681
000010 c8 34 e8 3d 22 38 36 3e 0d d6 09 3d 7b 41 c8 bd
       0.11338192 0.1779485 0.0336514 -0.097781144
000020 df 3b dd 3e 30 9e a2 bd 0b 55 f1 3e e4 3d fa bd
       0.4320974 -0.07940328 0.47135195 -0.12218836
000030 d9 c3 61 be 00 bc 5d be 0c b3 1c be 09 14 9d 3e
       -0.22047366 -0.21653748 -0.15302676 0.30679348
000040 5d 2a 88 bc ab ab 59 bd 73 0f 83 be d9 1e f9 bd
       -0.016621763 -0.05314223 -0.25597724 -0.12164087
000050 56 36 37 3e 4d d8 c7 bd 19 08 8d 3e 3a 6d 4f 3e
       0.17891821 -0.09758053 0.2754524 0.2025651
000060 d2 9e 26 3e 39 36 8f be 67 c8 c2 3d 77 50 ec bd
       0.16271523 -0.27971056 0.0951088 -0.11538785
000070 b6 18 fe bb bf 16 6f 3e f7 e5 c8 be 9c 7c 55 bd
       -0.0077544106 0.2334852 -0.3923795 -0.05212079
000080 45 f8 88 3c f1 e2 d4 3c 0d 95 24 3f f0 7c 25 be
       0.016719947 0.02598712 0.64289933 -0.16160941
000090 ff 4f 28 3e 3e 42 fe bd db b8 c6 bd 12 21 c2 3e
       0.16436766 -0.124149784 -0.09703227 0.37915856
0000a0 59 01 c1 bd f1 63 b2 3d 3c da 01 be 6e 26 8a be
       -0.09424085 0.087104686 -0.12680906 -0.26982445
0000b0 5c 02 c6 bd 08 fd 3e 3e f2 4c 94 be 5f d9 30 be
       -0.09668419 0.18651211 -0.28964955 -0.1727042
0000c0 bf 02 bf 3d b6 ee 00 be 9b 3b 56 be 36 a2 66 be
       0.09326696 -0.12591061 -0.20921175 -0.22522816
0000d0 9a b4 65 3e 24 7c a9 bd 0d 78 14 b9 b2 99 65 3e
       0.22432175 -0.08275631 -0.00014159102 0.22421911
0000e0 79 4f 2b be 5a 33 c2 3c 1b c6 80 be 56 f5 1d 3e
       -0.16729535 0.023706127 -0.25151142 0.1542562
0000f0 41 86 40 bd cf da af 3d 62 4c a1 be 8b 06 8f 3e
       -0.047003035 0.08586656 -0.31503588 0.2793468
000100 bd f7 7a 3d c6 18 2d be 88 77 d9 3d 40 9a ad 3c
       0.061271418 -0.16903982 0.10618502 0.021191716
000110 b8 3c b8 3e a9 12 64 bd ea b1 8d be bb 76 ec bd
       0.35983825 -0.05568186 -0.276748 -0.115460835
000120 15 cd 29 3e 00 c4 45 bd 66 0f 2f 3e 48 ce 1d 3f
       0.16582139 -0.048282623 0.17095718 0.61642885
000130 09 89 5e be 09 da 26 3f c9 ed ed 3c aa f5 d3 bc
       -0.21731962 0.65176445 0.029044049 -0.025873978
000140 b9 ba 8b bd 27 78 39 3d e2 c5 5a 3e 2e 7c 2f bc
       -0.06822724 0.0452806 0.21364549 -0.010710759
000150 d0 ba 03 3e 04 cb 4d bd e4 9c b0 3d cc 9a 37 3e
       0.12864232 -0.05024244 0.086236745 0.17930144
000160 d8 f0 b0 be ab 12 93 3d 29 b4 b0 be 12 51 b2 bd
       -0.3455875 0.07181295 -0.3451245 -0.08706869
000170 fb d6 3a bd 7c 57 ab bd 75 73 58 be 95 eb 45 be
       -0.045615178 -0.08366296 -0.21137793 -0.19328149
000180 62 3e 52 bd 07 9e 98 3e e4 b3 0a 3f ca e2 84 3e
       -0.051329024 0.29808065 0.5418074 0.25954276
000190 11 07 8d be 20 58 40 3e 5a 1b 94 be b9 57 98 3d
       -0.27544454 0.18783617 -0.28927118 0.07438607
0001a0 3d c1 56 3e 97 5f 91 be f4 c4 b5 3c f1 00 12 3f
       0.20972152 -0.28393242 0.022188641 0.57032686
0001b0 00 9a e7 bc 54 2d e6 3d 4f 07 25 bd 5f 84 77 3e
       -0.028271675 0.112391144 -0.040290173 0.2417159
0001c0 ab d2 eb bd 35 e2 1c 3d 4f 26 cc 3d 78 b3 36 3d
       -0.11514791 0.038301665 0.09968244 0.04460475
0001d0 f9 db e3 3e cb 14 3d be 2e 29 f6 3d 37 c5 ef 3c
       0.44503763 -0.18464963 0.12019573 0.029268844
0001e0 c6 a6 a3 3c c2 a5 8e 3c bd 9a 1f bd 53 f3 11 3e
       0.019976985 0.017413024 -0.03896593 0.14252977
0001f0 38 0e 34 bd 1d 6e 04 3e 40 82 92 3d d9 a5 bc 3e
       -0.043958873 0.1293263 0.071537495 0.36845282
000200 96 b2 66 be fe 11 96 bd 6e f0 94 be 18 4c f5 3e
       -0.22529063 -0.073276505 -0.29089683 0.47909617
000210 fc b9 e9 be d5 5d 5b 3e 63 6f 61 3e 8d 73 ef bd
       -0.45649707 0.21422513 0.22015147 -0.116919614
000220 98 46 ac bd 0b 91 ec 3d 80 41 97 3e f6 50 84 3d
       -0.08411902 0.11551102 0.2954216 0.064607546
000230 f0 a9 1f be c7 01 5b bc f6 aa 6d 3d f8 9d 76 3e
       -0.1559217 -0.013367123 0.05802437 0.24083698
000240 c8 2a eb 3d dd 28 d7 bd 43 b7 a3 bc 68 ca 39 3d
       0.11482769 -0.10505841 -0.019984847 0.045359045
000250 60 e3 37 3e cf 0e 89 be 37 db a6 bd 3f cd 47 3c
       0.1795783 -0.2676911 -0.08147281 0.012194931
000260 92 3a 8d 3e 51 ea 9e 3d 7c 24 bc bc 64 ff 80 be
       0.27583748 0.07759536 -0.022966616 -0.25194848
000270 03 96 31 3e 8f 3a bd 3d 47 a1 23 be 5e 35 8e 3e
       0.17342381 0.09239685 -0.15979491 0.2777509
000280 e6 69 05 3e 5d ab 87 3e f6 10 a7 3d 4f 66 8a 3d
       0.13028678 0.26497927 0.08157532 0.06757795
000290 77 5e 57 3e 42 5f 88 3e 10 fa d0 3e 14 ef 0b be
       0.21032129 0.26635176 0.40815783 -0.1366542
0002a0 bf 13 7d bd 81 ec ae bd 10 ae 16 3f d0 31 43 bf
       -0.06178641 -0.08541203 0.5885935 -0.7624788
0002b0 9c 44 03 3f ff dc 72 be a1 b9 60 bd 44 5e 75 be
       0.51276565 -0.23717116 -0.05486453 -0.2396174
0002c0 c9 5a fc 3c c2 86 8b be de f1 71 be de b7 b1 bd
       0.030805008 -0.2725125 -0.23627421 -0.08677648
0002d0 d7 97 eb 3e 34 00 e3 3d 3f c4 d2 3e 9b 76 d2 bd
       0.46014282 0.11084023 0.4116535 -0.102765284
0002e0 58 1b c7 be f0 a2 ee bd 68 dc b8 bb 91 26 1e be
       -0.3888805 -0.116521716 -0.005641509 -0.154444
0002f0 11 93 56 3d 3d f9 fb 3d 01 ef bb bd 19 6b 82 3e
       0.052386347 0.12303398 -0.09176446 0.25472334
000300 6a 42 70 be ac 03 ec bd a1 52 32 bd 50 ef 3a bc
       -0.23462835 -0.11524138 -0.043535832 -0.011409596
000310 2d 38 b4 3e 5c eb 5e be a0 1d 5b be 72 62 a0 bc
       0.3519911 -0.2176947 -0.2139802 -0.019578192
000320 bd 44 09 bd ce 5b 6c 3e 01 57 04 bd d5 b9 3e 3e
       -0.03351282 0.23081896 -0.032309536 0.18625577
000330 4b d8 2b 3d 8b e4 c9 3e 1b 66 14 be 14 81 96 3d
       0.04195432 0.39432177 -0.14492075 0.073488384
000340 c0 cd ea bc 46 f0 7c bb e0 5a a2 3e bc c6 e1 3e
       -0.028662562 -0.0038595363 0.31709957 0.44096935
000350 3d 6f 88 3e 84 e1 32 bf af a9 8e bd 85 70 51 bb
       0.26647368 -0.6987536 -0.06965958 -0.0031957936
000360 36 fc 22 bd f1 7d 44 3c 97 2f 67 3e bc 2f 85 3e
       -0.03979131 0.011992917 0.22576748 0.2601298
000370 01 63 31 be 14 0f 8c 3e 86 57 a3 3d ba d2 8b bc
       -0.17322923 0.27355254 0.07975678 -0.017068256
000380 83 e2 8f 3e f0 e9 39 3d 47 ee 78 3e 55 64 a7 bd
       0.28102502 0.045389116 0.24309646 -0.08173434
000390 58 e2 1d be a6 9d 2e bd 8b d0 8e be 5d e7 75 be
       -0.15418375 -0.042630814 -0.2789348 -0.2401404
0003a0 1c c9 99 3e ec 6c 87 be 5f fb cf bd e0 23 19 3f
       0.30036247 -0.26450288 -0.10155367 0.59820366
0003b0 45 a3 40 3e fb 4e c5 bd 5b d4 73 be bd 4d f6 3d
       0.18812282 -0.09634205 -0.23811476 0.12026546
0003c0 80 32 2e bc 56 19 59 3d ab e9 42 3e c2 80 96 be
       -0.010632157 0.053002678 0.1903445 -0.2939511
0003d0 fa 8b a2 bd 53 59 08 be b3 95 fd 3c de 49 9a 3d
       -0.07936855 -0.13315324 0.030955171 0.0753362
0003e0 32 d1 c2 3b 98 bf 10 3e 1d 41 53 3e 8a 83 a9 3d
       0.005945348 0.14135587 0.20630307 0.08277042
0003f0 2d 40 73 3e 9d db 4f 3e 1e 46 27 3d bb 15 b0 bd
       0.2375495 0.2029862 0.040838353 -0.08597895

encoder.linear1.weight f4 [128, 128]
000000 a0 b0 61 bd 24 c6 fa 3d cb 9d 02 3e 26 9b 09 3e
       -0.055100083 0.122448236 0.12755506 0.1343809
000010 17 1d c1 3d fa 8f ed be 97 0a 7c 3d be e2 4b be
       0.094293766 -0.46398908 0.061533537 -0.19910714
000020 de 50 64 3e e8 3d 45 bc 97 ad 9d 3e 26 4b c4 be
       0.22296473 -0.012038685 0.307965 -0.38338584
000030 c4 15 ae 3b 5e bf 09 3e 76 36 1c be d2 0e 0c be
       0.0053126533 0.13451907 -0.1525515 -0.13677529
000040 db 4c c8 3d fc 4d 50 be aa 7b 88 3e 15 1f 62 be
       0.09780284 -0.20342249 0.26656848 -0.2208217
000050 04 5a d0 bd 69 d4 a2 3e 0f 5f 0e be d1 d7 cf 3e
       -0.10173419 0.3180268 -0.1390345 0.40594342
000060 96 a4 c2 be 60 a9 91 bc fb 46 33 3e 0e 00 49 3b
       -0.38016194 -0.01778096 0.17507546 0.0030670199
000070 67 1b 3a bd 92 dc 92 3d 68 82 bc bc 5c 6a ea bc
       -0.04543629 0.07170977 -0.023011401 -0.02861517
000080 fb 2e 4f bd 57 21 2a 3d 88 a4 09 3f 05 64 97 bb
       -0.050581913 0.0415357 0.5376668 -0.0046200776
000090 24 a9 8b be 5f ff 94 be 77 fb da 3c f9 32 68 3d
       -0.27277482 -0.29101083 0.026731236 0.056689236
0000a0 0a 99 9d 3e a5 53 3b be 27 04 42 3e 9e 47 24 be
       0.30780822 -0.18293627 0.18946896 -0.16042945
0000b0 20 23 f3 be 2e 81 f2 3e 50 e5 79 be 77 9b 12 3e
       -0.47487736 0.4736418 -0.24403882 0.14317118
0000c0 a2 ad 3e 3e 15 16 be 3c fc 83 d0 3c ed ed 31 3e
       0.18620923 0.023203889 0.02545356 0.17375918
0000d0 92 6f a0 be 32 56 21 3e 66 20 18 3e 52 bf 61 bd
       -0.3133512 0.15755537 0.14856109 -0.055114098
0000e0 eb fd 1e bc 88 85 0b 3e 33 64 12 bd f5 c1 70 be
       -0.009704093 0.13625157 -0.03574009 -0.23511489
0000f0 c9 3f 11 be 38 f6 92 3d 14 28 18 3e 3c 10 f9 3d
       -0.14184488 0.07175869 0.14859039 0.121612996
000100 45 3f a4 be b8 3a c5 bd fc ec bc 3d d8 07 60 bd
       -0.3207952 -0.0963034 0.09224889 -0.05469498
000110 72 87 b2 3d e9 b4 ef 3d 4c 3a 15 be c0 6d 41 be
       0.087172404 0.11704428 -0.1457302 -0.18889523
000120 5e bf ab 3e ad 34 0e be b2 36 81 3e c8 ec 40 3e
       0.3354444 -0.13887282 0.25237042 0.18840325
000130 9f 30 c1 3c 7a 0f 72 3f 9f a1 47 3e 74 6a 00 be
       0.023582755 0.94554865 0.19495247 -0.12540609
000140 58 81 be 3d b7 29 3e 3e 57 96 c6 be 2a 30 6c be
       0.09302014 0.185706 -0.38786575 -0.23065248
000150 61 f0 c3 be a5 e0 ba bd 0d ff 7e 3e 81 a4 3e 3e
       -0.38269332 -0.09124879 0.24901982 0.18617441
000160 3b d6 bc 3d a6 8b 0b be c4 6f e1 be c3 c7 85 be
       0.09220549 -0.1362749 -0.44030583 -0.2612897
000170 31 da fa 3d 2f 21 9d be be e6 08 3e 20 6d 85 be
       0.12248648 -0.3068938 0.13369271 -0.26059818
000180 de 00 13 3e 42 b0 e3 be 31 eb c0 3d 89 35 f8 3e
       0.143558 -0.44470412 0.09419859 0.48478344
000190 ff cc 67 3e 24 95 11 3d 74 98 2c bd 02 a8 bd 3d
       0.22636794 0.035542622 -0.042137578 0.092605606
0001a0 30 82 6a 3e dd b0 9c 3e 54 dc c2 3d fe 12 ac 3e
       0.22901225 0.30603686 0.095146805 0.3360824
0001b0 28 da f8 3d 4a 5c 7c 3e 2d 91 9d 3e 6d 22 9f bd
       0.12150985 0.2464458 0.30774823 -0.07770238
0001c0 af 24 5e 3d c1 c1 ba be 7a 7c bd bd 7e 91 10 3e
       0.054234203 -0.36475947 -0.09252258 0.14118001
0001d0 56 9b d4 3e c6 6a d7 3d fe 54 9b 3e d9 92 8d be
       0.41524762 0.10518412 0.3033828 -0.27651098
0001e0 e0 02 1b 3e 27 3f 4c be 3d eb a9 be dc 4d 3d 3d
       0.15137815 -0.19945966 -0.33187285 0.04621683
0001f0 15 cd d9 bb 2b ac 5e 3c 91 fc c1 3e 8e a0 f2 3d
       -0.006646762 0.013590853 0.37888005 0.118470296
000200 56 74 72 3d 49 f7 89 3e c6 b8 a1 3e 9b 51 1a be
       0.059192978 0.26946476 0.31586283 -0.15070193
000210 b8 97 64 3e 3a 74 8f 3d 06 c1 23 be 49 9d e8 bc
       0.22323501 0.0700459 -0.15991601 -0.028395312
000220 58 c6 94 3e 87 20 11 be 82 79 b5 3e 24 e6 36 bd
       0.29057574 -0.14172564 0.35444266 -0.044653073
000230 1f e0 d9 3e 71 f6 93 bd 44 63 a6 3e 3e 4c da be
       0.42553803 -0.07224739 0.3249761 -0.42636293
000240 fc 4e e8 be 3c ff 0b 3e ba 9e f8 be cf 57 03 be
       -0.4537276 0.13671583 -0.485586 -0.12826465
000250 30 8a 0c be 08 24 1d bd dd 06 68 bd 64 a2 83 3e
       -0.1372459 -0.03836444 -0.05664717 0.25709832
000260 60 fe ad be e7 1b be bd 27 1a ec 3e 3e 6e d3 3e
       -0.33983135 -0.09282666 0.46113703 0.41295046
000270 ac 25 3f be af 80 88 be 41 28 83 3e b9 d8 6a be
       -0.18666714 -0.26660678 0.2561665 -0.22934236
000280 4a a3 6d bd ad c9 21 3e 92 63 dd ba c9 1b 6a be
       -0.058017053 0.1579959 -0.0016890636 -0.22862162
000290 ca 2c 82 bd f6 e4 f2 bd 45 64 25 be 55 41 36 bd
       -0.06356199 -0.11860077 -0.16151531 -0.0444959
0002a0 1c 09 ac 3e ca 55 e6 be 7d b5 a3 3e 17 8f df 3d
       0.336007 -0.44987327 0.31974402 0.10915964
0002b0 22 69 73 be f4 a8 a5 3e 7c f4 5b be 35 5b c9 bd
       -0.23770574 0.32355464 -0.21479982 -0.098318495
0002c0 7b 20 98 3d 72 bc 9c bd a3 ad 41 be d2 b8 15 be
       0.0742807 -0.076531306 -0.18913893 -0.14621285
0002d0 56 67 f7 be e0 e3 24 be 98 13 ce be 25 f3 83 bb
       -0.48321027 -0.16102552 -0.40249324 -0.004026788
0002e0 54 23 c8 3c 99 d2 5d 3e aa e6 af be ee 15 83 be
       0.024430908 0.21662368 -0.3435567 -0.2560267
0002f0 98 07 2c be 1b de 18 3e 24 6e a3 3e 40 1c a0 be
       -0.16799772 0.14928477 0.31919968 -0.31271553
000300 f4 3b ae bd bc 5c 1a 3e 8d 7b 2c 3d dc b5 34 3e
       -0.08507529 0.15074438 0.042110015 0.17647499
000310 51 3b 8c be 3b ef 37 3e a7 41 22 3c cf 60 87 3e
       -0.27389005 0.17962353 0.009903348 0.26441047
000320 6d 35 9a 3e a2 00 c1 be 74 7c ca 3e 8f 9d 92 be
       0.30118886 -0.37695795 0.39548075 -0.28635833
000330 f5 68 53 3d 6f f0 07 3f 12 ab 07 3e 08 59 29 be
       0.051613767 0.5310125 0.13248852 -0.16537869
000340 47 37 85 bc db 33 18 be a7 a3 99 be 0b a3 4a be
       -0.01626171 -0.14863531 -0.3000767 -0.19788758
000350 58 a8 57 bd 77 8d 9b 3c 22 b4 7b 3d cf af 5b bd
       -0.05265078 0.018988354 0.061451085 -0.05363446
000360 be dd a3 be 8c 15 17 3d d3 a0 2b be 94 b7 a6 3d
       -0.32005113 0.036885783 -0.16760568 0.081404835
000370 d8 5f 6d bd 46 fe 7e 3e 2e 0e 65 3d 6e 06 d1 be
       -0.05795273 0.24901685 0.055921726 -0.40825218
000380 e0 39 f0 3d 3a fa b2 3d 59 d4 2e 3d b6 4e b0 bd
       0.11729789 0.08739133 0.04268298 -0.08608763
000390 2c 6e 0a 3e fd 89 05 3e b1 fe 60 be 54 39 e4 3e
       0.1351859 0.1304092 -0.21972157 0.44574988
0003a0 a2 56 5f 3e f8 b7 02 be 47 0d a5 3e 45 42 55 3e
       0.21810392 -0.12765491 0.32236692 0.20826061
0003b0 dc cc 5c 3e 59 9a 9b 3d 39 93 44 3e b7 56 b2 be
       0.21562523 0.07597799 0.19196786 -0.34831783
0003c0 35 89 0c be 0f b3 47 3f 15 89 af be aa 81 74 bd
       -0.13724215 0.78007597 -0.34284273 -0.05969397
0003d0 f9 c9 9c 3e 12 cc 8d be 72 f3 44 bd f1 38 a2 bd
       0.30622843 -0.27694756 -0.04808373 -0.07921017
0003e0 c9 5d 9c 3e 59 c7 52 3e 5e 3b 80 3e 3c 90 0a 3e
       0.30540302 0.20583858 0.25045294 0.13531584
0003f0 36 ab 55 bd 5c 3a 29 bd aa 6b 19 be b4 e7 b8 3d
       -0.052165233 -0.04131542 -0.14982477 0.09028569

encoder.linear1.bias f4 [128]
000000 99 e5 45 3e 44 12 b3 3d 05 00 7c 3d 2d ad e9 be
       0.19325866 0.08743718 0.061523456 -0.45639935
000010 70 ca 89 3e 23 d6 be bd d4 b6 04 3e 16 e3 94 bd
       0.2691226 -0.09318187 0.12960368 -0.07269876
000020 59 f3 0b be 6a 97 44 3d 1d 1d 7c bd 85 d8 ef 3d
       -0.13667049 0.047995962 -0.061551202 0.1171122
000030 b2 8b 02 b8 ea 2d 02 3e 20 21 ae 3d 55 4c 63 bd
       -3.1124517e-05 0.12712827 0.08502412 -0.055492718
000040 03 35 2c 3d 7b 97 8e bd d8 ad 9a be 1d 3b 18 3d
       0.042042743 -0.06962486 -0.30210757 0.03716575
000050 7d d1 92 3e 23 06 54 3c f0 c8 39 3e d4 32 17 be
       0.28675452 0.012940916 0.18143058 -0.14765483
000060 00 b0 16 bc 80 72 78 3d cf 00 22 3e 7b 85 5f 3d
       -0.009197235 0.06065607 0.15820621 0.054570656
000070 d5 03 92 be 60 f1 18 3d ad 1b 0b 3d 9e 43 f4 bd
       -0.2851855 0.03733957 0.03396194 -0.119269595
000080 19 00 f2 3b c6 18 a0 be 3b c9 4e bc f8 75 ac 3c
       0.0073852655 -0.312689 -0.012621219 0.021052346
000090 ec 46 00 bd ee 0b 35 3e d6 65 c9 bc 03 7e d6 3d
       -0.031317636 0.17680332 -0.024584692 0.104732536
0000a0 88 a3 99 bd 47 c2 08 3e 7e b4 77 3e f3 71 fe 3d
       -0.07501894 0.13355361 0.24189946 0.12424078
0000b0 9a 77 93 bd b1 f4 29 3e 8c ac 27 3d 63 05 9b 3c
       -0.072005466 0.16597249 0.040936038 0.018923467
0000c0 68 7f a6 3d d4 04 06 3d 2b 29 15 bd bb 78 cd 3d
       0.081297696 0.03271945 -0.036416214 0.10032793
0000d0 98 29 da 3d 57 d1 1c bc 21 d7 d0 bd 11 9b e3 3d
       0.10652465 -0.009571395 -0.101972826 0.11113561
0000e0 fc 8a 5f 3e 32 97 f4 3d 68 2e 5d 3e f3 a8 67 3d
       0.21830362 0.11942901 0.21599734 0.056557607
0000f0 75 8b 03 3e 77 e0 0e 3e 9a 24 a4 bc 3c ba d0 3d
       0.12846167 0.13952814 -0.020036984 0.101917714
000100 21 65 35 3d 7c 64 e4 bc 7e 1e a8 be c7 5e 58 3e
       0.044285897 -0.027879946 -0.32835764 0.21129905
000110 24 af 02 3e b2 00 70 3b d1 a6 0c 3e a1 b1 73 3e
       0.12762123 0.0036621508 0.1373551 0.23798229
000120 98 2b 9d be ee be 73 bd be 63 27 3e 0c d1 20 be
       -0.30697322 -0.059508257 0.16346642 -0.15704745
000130 eb 03 0e 3e 27 9c 9b 3e dd 79 1a be 69 2b cc bd
       0.13868682 0.30392572 -0.1508555 -0.09969217
000140 86 2d ba ba 40 64 86 3d 57 28 c0 3d 3f 4c 09 3e
       -0.0014204241 0.0656209 0.09382694 0.13407992
000150 47 69 14 be 30 57 38 be 28 a7 1d 3e 76 db e2 3d
       -0.14493285 -0.1800201 0.15395796 0.11077015
000160 34 c3 d1 3d 80 39 1a 3e e9 95 a7 3e 27 38 4f 3d
       0.1024231 0.15060997 0.3273156 0.05059066
000170 8a 37 ba 3d aa ea 81 3f e5 23 07 3e 09 a8 30 bc
       0.090926245 1.0149739 0.13197286 -0.01078225
000180 28 a8 ac 3d 78 33 2e bd 2b a9 dd 3d 61 8a 8e 3d
       0.08430511 -0.042529553 0.10823282 0.069599874
000190 1c 01 7a 3e aa 6d 56 3e 7c fb 0b 3e e8 47 26 3e
       0.24414486 0.20940271 0.13670152 0.16238368
0001a0 42 64 cb bb 60 a4 e2 3d 38 85 38 3d e7 80 3d bd
       -0.00620702 0.11066508 0.045048922 -0.04626551
0001b0 6a ac af bd f3 58 75 bc 9d 55 93 bb f4 80 0c 3d
       -0.08577807 -0.01497482 -0.00449629 0.034302667
0001c0 2a 51 ae 3d 84 fd db 3d 1a e5 01 be 0e e3 eb 3d
       0.085115746 0.10741714 -0.12685052 0.115179166
0001d0 19 6f 1d 3e d5 54 86 3e 5d 69 68 3d a6 50 7c be
       0.15374412 0.26236597 0.056741107 -0.2464014
0001e0 7d e4 82 bd ab f9 48 be 8f 38 47 bd 00 5a 43 3e
       -0.06391237 -0.19626491 -0.048637923 0.19077301
0001f0 71 fb a0 3d 0a a7 ba 3d c2 dd 34 3e ca 0c 3f 3e
       0.07860459 0.091138914 0.17662719 0.18657222
